HfGPT2(
  (model): GPT2LMHeadModel(
    (transformer): GPT2Model(
      (wte): Embedding(10000, 960)
      (wpe): Embedding(192, 960)
      (drop): Dropout(p=0.0, inplace=False)
      (h): ModuleList(
        (0): GPT2Block(
          (ln_1): LayerNorm((960,), eps=1e-05, elementwise_affine=True)
          (attn): GPT2Attention(
            (c_attn): Conv1D()
            (c_proj): Conv1D()
            (attn_dropout): Dropout(p=0.0, inplace=False)
            (resid_dropout): Dropout(p=0.1, inplace=False)
          )
          (ln_2): LayerNorm((960,), eps=1e-05, elementwise_affine=True)
          (mlp): GPT2MLP(
            (c_fc): Conv1D()
            (c_proj): Conv1D()
            (act): NewGELUActivation()
            (dropout): Dropout(p=0.1, inplace=False)
          )
        )
        (1): GPT2Block(
          (ln_1): LayerNorm((960,), eps=1e-05, elementwise_affine=True)
          (attn): GPT2Attention(
            (c_attn): Conv1D()
            (c_proj): Conv1D()
            (attn_dropout): Dropout(p=0.0, inplace=False)
            (resid_dropout): Dropout(p=0.1, inplace=False)
          )
          (ln_2): LayerNorm((960,), eps=1e-05, elementwise_affine=True)
          (mlp): GPT2MLP(
            (c_fc): Conv1D()
            (c_proj): Conv1D()
            (act): NewGELUActivation()
            (dropout): Dropout(p=0.1, inplace=False)
          )
        )
        (2): GPT2Block(
          (ln_1): LayerNorm((960,), eps=1e-05, elementwise_affine=True)
          (attn): GPT2Attention(
            (c_attn): Conv1D()
            (c_proj): Conv1D()
            (attn_dropout): Dropout(p=0.0, inplace=False)
            (resid_dropout): Dropout(p=0.1, inplace=False)
          )
          (ln_2): LayerNorm((960,), eps=1e-05, elementwise_affine=True)
          (mlp): GPT2MLP(
            (c_fc): Conv1D()
            (c_proj): Conv1D()
            (act): NewGELUActivation()
            (dropout): Dropout(p=0.1, inplace=False)
          )
        )
        (3): GPT2Block(
          (ln_1): LayerNorm((960,), eps=1e-05, elementwise_affine=True)
          (attn): GPT2Attention(
            (c_attn): Conv1D()
            (c_proj): Conv1D()
            (attn_dropout): Dropout(p=0.0, inplace=False)
            (resid_dropout): Dropout(p=0.1, inplace=False)
          )
          (ln_2): LayerNorm((960,), eps=1e-05, elementwise_affine=True)
          (mlp): GPT2MLP(
            (c_fc): Conv1D()
            (c_proj): Conv1D()
            (act): NewGELUActivation()
            (dropout): Dropout(p=0.1, inplace=False)
          )
        )
        (4): GPT2Block(
          (ln_1): LayerNorm((960,), eps=1e-05, elementwise_affine=True)
          (attn): GPT2Attention(
            (c_attn): Conv1D()
            (c_proj): Conv1D()
            (attn_dropout): Dropout(p=0.0, inplace=False)
            (resid_dropout): Dropout(p=0.1, inplace=False)
          )
          (ln_2): LayerNorm((960,), eps=1e-05, elementwise_affine=True)
          (mlp): GPT2MLP(
            (c_fc): Conv1D()
            (c_proj): Conv1D()
            (act): NewGELUActivation()
            (dropout): Dropout(p=0.1, inplace=False)
          )
        )
        (5): GPT2Block(
          (ln_1): LayerNorm((960,), eps=1e-05, elementwise_affine=True)
          (attn): GPT2Attention(
            (c_attn): Conv1D()
            (c_proj): Conv1D()
            (attn_dropout): Dropout(p=0.0, inplace=False)
            (resid_dropout): Dropout(p=0.1, inplace=False)
          )
          (ln_2): LayerNorm((960,), eps=1e-05, elementwise_affine=True)
          (mlp): GPT2MLP(
            (c_fc): Conv1D()
            (c_proj): Conv1D()
            (act): NewGELUActivation()
            (dropout): Dropout(p=0.1, inplace=False)
          )
        )
        (6): GPT2Block(
          (ln_1): LayerNorm((960,), eps=1e-05, elementwise_affine=True)
          (attn): GPT2Attention(
            (c_attn): Conv1D()
            (c_proj): Conv1D()
            (attn_dropout): Dropout(p=0.0, inplace=False)
            (resid_dropout): Dropout(p=0.1, inplace=False)
          )
          (ln_2): LayerNorm((960,), eps=1e-05, elementwise_affine=True)
          (mlp): GPT2MLP(
            (c_fc): Conv1D()
            (c_proj): Conv1D()
            (act): NewGELUActivation()
            (dropout): Dropout(p=0.1, inplace=False)
          )
        )
        (7): GPT2Block(
          (ln_1): LayerNorm((960,), eps=1e-05, elementwise_affine=True)
          (attn): GPT2Attention(
            (c_attn): Conv1D()
            (c_proj): Conv1D()
            (attn_dropout): Dropout(p=0.0, inplace=False)
            (resid_dropout): Dropout(p=0.1, inplace=False)
          )
          (ln_2): LayerNorm((960,), eps=1e-05, elementwise_affine=True)
          (mlp): GPT2MLP(
            (c_fc): Conv1D()
            (c_proj): Conv1D()
            (act): NewGELUActivation()
            (dropout): Dropout(p=0.1, inplace=False)
          )
        )
        (8): GPT2Block(
          (ln_1): LayerNorm((960,), eps=1e-05, elementwise_affine=True)
          (attn): GPT2Attention(
            (c_attn): Conv1D()
            (c_proj): Conv1D()
            (attn_dropout): Dropout(p=0.0, inplace=False)
            (resid_dropout): Dropout(p=0.1, inplace=False)
          )
          (ln_2): LayerNorm((960,), eps=1e-05, elementwise_affine=True)
          (mlp): GPT2MLP(
            (c_fc): Conv1D()
            (c_proj): Conv1D()
            (act): NewGELUActivation()
            (dropout): Dropout(p=0.1, inplace=False)
          )
        )
        (9): GPT2Block(
          (ln_1): LayerNorm((960,), eps=1e-05, elementwise_affine=True)
          (attn): GPT2Attention(
            (c_attn): Conv1D()
            (c_proj): Conv1D()
            (attn_dropout): Dropout(p=0.0, inplace=False)
            (resid_dropout): Dropout(p=0.1, inplace=False)
          )
          (ln_2): LayerNorm((960,), eps=1e-05, elementwise_affine=True)
          (mlp): GPT2MLP(
            (c_fc): Conv1D()
            (c_proj): Conv1D()
            (act): NewGELUActivation()
            (dropout): Dropout(p=0.1, inplace=False)
          )
        )
      )
      (ln_f): LayerNorm((960,), eps=1e-05, elementwise_affine=True)
    )
    (lm_head): Linear(in_features=960, out_features=10000, bias=False)
  )
)