model
HfTransfoXL(
  (model): TransfoXLLMHeadModel(
    (transformer): TransfoXLModel(
      (word_emb): AdaptiveEmbedding(
        (emb_layers): ModuleList(
          (0): Embedding(19997, 512)
          (1): Embedding(20000, 128)
          (2): Embedding(160000, 32)
          (3): Embedding(67739, 8)
        )
        (emb_projs): ParameterList(
            (0): Parameter containing: [torch.float32 of size 960x512]
            (1): Parameter containing: [torch.float32 of size 960x128]
            (2): Parameter containing: [torch.float32 of size 960x32]
            (3): Parameter containing: [torch.float32 of size 960x8]
        )
      )
      (drop): Dropout(p=0.1, inplace=False)
      (layers): ModuleList(
        (0): RelPartialLearnableDecoderLayer(
          (dec_attn): RelPartialLearnableMultiHeadAttn(
            (qkv_net): Linear(in_features=960, out_features=1536, bias=False)
            (drop): Dropout(p=0.1, inplace=False)
            (dropatt): Dropout(p=0.0, inplace=False)
            (o_net): Linear(in_features=512, out_features=960, bias=False)
            (layer_norm): LayerNorm((960,), eps=1e-05, elementwise_affine=True)
            (r_net): Linear(in_features=960, out_features=512, bias=False)
          )
          (pos_ff): PositionwiseFF(
            (CoreNet): Sequential(
              (0): Linear(in_features=960, out_features=4032, bias=True)
              (1): ReLU(inplace=True)
              (2): Dropout(p=0.1, inplace=False)
              (3): Linear(in_features=4032, out_features=960, bias=True)
              (4): Dropout(p=0.1, inplace=False)
            )
            (layer_norm): LayerNorm((960,), eps=1e-05, elementwise_affine=True)
          )
        )
        (1): RelPartialLearnableDecoderLayer(
          (dec_attn): RelPartialLearnableMultiHeadAttn(
            (qkv_net): Linear(in_features=960, out_features=1536, bias=False)
            (drop): Dropout(p=0.1, inplace=False)
            (dropatt): Dropout(p=0.0, inplace=False)
            (o_net): Linear(in_features=512, out_features=960, bias=False)
            (layer_norm): LayerNorm((960,), eps=1e-05, elementwise_affine=True)
            (r_net): Linear(in_features=960, out_features=512, bias=False)
          )
          (pos_ff): PositionwiseFF(
            (CoreNet): Sequential(
              (0): Linear(in_features=960, out_features=4032, bias=True)
              (1): ReLU(inplace=True)
              (2): Dropout(p=0.1, inplace=False)
              (3): Linear(in_features=4032, out_features=960, bias=True)
              (4): Dropout(p=0.1, inplace=False)
            )
            (layer_norm): LayerNorm((960,), eps=1e-05, elementwise_affine=True)
          )
        )
        (2): RelPartialLearnableDecoderLayer(
          (dec_attn): RelPartialLearnableMultiHeadAttn(
            (qkv_net): Linear(in_features=960, out_features=1536, bias=False)
            (drop): Dropout(p=0.1, inplace=False)
            (dropatt): Dropout(p=0.0, inplace=False)
            (o_net): Linear(in_features=512, out_features=960, bias=False)
            (layer_norm): LayerNorm((960,), eps=1e-05, elementwise_affine=True)
            (r_net): Linear(in_features=960, out_features=512, bias=False)
          )
          (pos_ff): PositionwiseFF(
            (CoreNet): Sequential(
              (0): Linear(in_features=960, out_features=4032, bias=True)
              (1): ReLU(inplace=True)
              (2): Dropout(p=0.1, inplace=False)
              (3): Linear(in_features=4032, out_features=960, bias=True)
              (4): Dropout(p=0.1, inplace=False)
            )
            (layer_norm): LayerNorm((960,), eps=1e-05, elementwise_affine=True)
          )
        )
        (3): RelPartialLearnableDecoderLayer(
          (dec_attn): RelPartialLearnableMultiHeadAttn(
            (qkv_net): Linear(in_features=960, out_features=1536, bias=False)
            (drop): Dropout(p=0.1, inplace=False)
            (dropatt): Dropout(p=0.0, inplace=False)
            (o_net): Linear(in_features=512, out_features=960, bias=False)
            (layer_norm): LayerNorm((960,), eps=1e-05, elementwise_affine=True)
            (r_net): Linear(in_features=960, out_features=512, bias=False)
          )
          (pos_ff): PositionwiseFF(
            (CoreNet): Sequential(
              (0): Linear(in_features=960, out_features=4032, bias=True)
              (1): ReLU(inplace=True)
              (2): Dropout(p=0.1, inplace=False)
              (3): Linear(in_features=4032, out_features=960, bias=True)
              (4): Dropout(p=0.1, inplace=False)
            )
            (layer_norm): LayerNorm((960,), eps=1e-05, elementwise_affine=True)
          )
        )
        (4): RelPartialLearnableDecoderLayer(
          (dec_attn): RelPartialLearnableMultiHeadAttn(
            (qkv_net): Linear(in_features=960, out_features=1536, bias=False)
            (drop): Dropout(p=0.1, inplace=False)
            (dropatt): Dropout(p=0.0, inplace=False)
            (o_net): Linear(in_features=512, out_features=960, bias=False)
            (layer_norm): LayerNorm((960,), eps=1e-05, elementwise_affine=True)
            (r_net): Linear(in_features=960, out_features=512, bias=False)
          )
          (pos_ff): PositionwiseFF(
            (CoreNet): Sequential(
              (0): Linear(in_features=960, out_features=4032, bias=True)
              (1): ReLU(inplace=True)
              (2): Dropout(p=0.1, inplace=False)
              (3): Linear(in_features=4032, out_features=960, bias=True)
              (4): Dropout(p=0.1, inplace=False)
            )
            (layer_norm): LayerNorm((960,), eps=1e-05, elementwise_affine=True)
          )
        )
        (5): RelPartialLearnableDecoderLayer(
          (dec_attn): RelPartialLearnableMultiHeadAttn(
            (qkv_net): Linear(in_features=960, out_features=1536, bias=False)
            (drop): Dropout(p=0.1, inplace=False)
            (dropatt): Dropout(p=0.0, inplace=False)
            (o_net): Linear(in_features=512, out_features=960, bias=False)
            (layer_norm): LayerNorm((960,), eps=1e-05, elementwise_affine=True)
            (r_net): Linear(in_features=960, out_features=512, bias=False)
          )
          (pos_ff): PositionwiseFF(
            (CoreNet): Sequential(
              (0): Linear(in_features=960, out_features=4032, bias=True)
              (1): ReLU(inplace=True)
              (2): Dropout(p=0.1, inplace=False)
              (3): Linear(in_features=4032, out_features=960, bias=True)
              (4): Dropout(p=0.1, inplace=False)
            )
            (layer_norm): LayerNorm((960,), eps=1e-05, elementwise_affine=True)
          )
        )
        (6): RelPartialLearnableDecoderLayer(
          (dec_attn): RelPartialLearnableMultiHeadAttn(
            (qkv_net): Linear(in_features=960, out_features=1536, bias=False)
            (drop): Dropout(p=0.1, inplace=False)
            (dropatt): Dropout(p=0.0, inplace=False)
            (o_net): Linear(in_features=512, out_features=960, bias=False)
            (layer_norm): LayerNorm((960,), eps=1e-05, elementwise_affine=True)
            (r_net): Linear(in_features=960, out_features=512, bias=False)
          )
          (pos_ff): PositionwiseFF(
            (CoreNet): Sequential(
              (0): Linear(in_features=960, out_features=4032, bias=True)
              (1): ReLU(inplace=True)
              (2): Dropout(p=0.1, inplace=False)
              (3): Linear(in_features=4032, out_features=960, bias=True)
              (4): Dropout(p=0.1, inplace=False)
            )
            (layer_norm): LayerNorm((960,), eps=1e-05, elementwise_affine=True)
          )
        )
        (7): RelPartialLearnableDecoderLayer(
          (dec_attn): RelPartialLearnableMultiHeadAttn(
            (qkv_net): Linear(in_features=960, out_features=1536, bias=False)
            (drop): Dropout(p=0.1, inplace=False)
            (dropatt): Dropout(p=0.0, inplace=False)
            (o_net): Linear(in_features=512, out_features=960, bias=False)
            (layer_norm): LayerNorm((960,), eps=1e-05, elementwise_affine=True)
            (r_net): Linear(in_features=960, out_features=512, bias=False)
          )
          (pos_ff): PositionwiseFF(
            (CoreNet): Sequential(
              (0): Linear(in_features=960, out_features=4032, bias=True)
              (1): ReLU(inplace=True)
              (2): Dropout(p=0.1, inplace=False)
              (3): Linear(in_features=4032, out_features=960, bias=True)
              (4): Dropout(p=0.1, inplace=False)
            )
            (layer_norm): LayerNorm((960,), eps=1e-05, elementwise_affine=True)
          )
        )
        (8): RelPartialLearnableDecoderLayer(
          (dec_attn): RelPartialLearnableMultiHeadAttn(
            (qkv_net): Linear(in_features=960, out_features=1536, bias=False)
            (drop): Dropout(p=0.1, inplace=False)
            (dropatt): Dropout(p=0.0, inplace=False)
            (o_net): Linear(in_features=512, out_features=960, bias=False)
            (layer_norm): LayerNorm((960,), eps=1e-05, elementwise_affine=True)
            (r_net): Linear(in_features=960, out_features=512, bias=False)
          )
          (pos_ff): PositionwiseFF(
            (CoreNet): Sequential(
              (0): Linear(in_features=960, out_features=4032, bias=True)
              (1): ReLU(inplace=True)
              (2): Dropout(p=0.1, inplace=False)
              (3): Linear(in_features=4032, out_features=960, bias=True)
              (4): Dropout(p=0.1, inplace=False)
            )
            (layer_norm): LayerNorm((960,), eps=1e-05, elementwise_affine=True)
          )
        )
        (9): RelPartialLearnableDecoderLayer(
          (dec_attn): RelPartialLearnableMultiHeadAttn(
            (qkv_net): Linear(in_features=960, out_features=1536, bias=False)
            (drop): Dropout(p=0.1, inplace=False)
            (dropatt): Dropout(p=0.0, inplace=False)
            (o_net): Linear(in_features=512, out_features=960, bias=False)
            (layer_norm): LayerNorm((960,), eps=1e-05, elementwise_affine=True)
            (r_net): Linear(in_features=960, out_features=512, bias=False)
          )
          (pos_ff): PositionwiseFF(
            (CoreNet): Sequential(
              (0): Linear(in_features=960, out_features=4032, bias=True)
              (1): ReLU(inplace=True)
              (2): Dropout(p=0.1, inplace=False)
              (3): Linear(in_features=4032, out_features=960, bias=True)
              (4): Dropout(p=0.1, inplace=False)
            )
            (layer_norm): LayerNorm((960,), eps=1e-05, elementwise_affine=True)
          )
        )
      )
      (pos_emb): PositionalEmbedding()
    )
    (crit): ProjectedAdaptiveLogSoftmax(
      (out_layers): ModuleList(
        (0): Linear(in_features=512, out_features=19997, bias=True)
        (1): Linear(in_features=128, out_features=20000, bias=True)
        (2): Linear(in_features=32, out_features=160000, bias=True)
        (3): Linear(in_features=8, out_features=67739, bias=True)
      )
      (out_projs): ParameterList(
          (0): Parameter containing: [torch.float32 of size 960x512]
          (1): Parameter containing: [torch.float32 of size 960x128]
          (2): Parameter containing: [torch.float32 of size 960x32]
          (3): Parameter containing: [torch.float32 of size 960x8]
      )
    )
  )
)
special variables:
function variables:
…
  "n_token": 267736,
  "num_attention_heads": 8,
  "num_hidden_layers": 10,
  "pre_lnorm": false,
  "proj_init_std": 0.01,
  "same_length": false,
  "sample_softmax": -1,
  "tgt_len": 192,
  "tie_projs": [
    false,
    true,
    true,
    true
  ],
  "tie_weight": true,
  "transformers_version": "4.29.2",
  "untie_r": true,
  "vocab_size": 267736,
  "weight_init_range": 0.01,
  "weight_init_std": 0.02,
  "weight_init_type": "normal"
}
dump_patches: False
model: TransfoXLLMHeadModel(
  (transformer): TransfoXLModel(
    (word_emb): AdaptiveEmbedding(
      (emb_layers): ModuleList(
        (0): Embedding(19997, 512)
        (1): Embedding(20000, 128)
        (2): Embedding(160000, 32)
        (3): Embedding(67739, 8)
      )
      (emb_projs): ParameterList(
          (0): Parameter containing: [torch.float32 of size 960x512]
          (1): Parameter containing: [torch.float32 of size 960x128]
          (2): Parameter containing: [torch.float32 of size 960x32]
          (3): Parameter containing: [torch.float32 of size 960x8]
      )
    )
    (drop): Dropout(p=0.1, inplace=False)
    (layers): ModuleList(
      (0): RelPartialLearnableDecoderLayer(
        (dec_attn): RelPartialLearnableMultiHeadAttn(
          (qkv_net): Linear(in_features=960, out_features=1536, bias=False)
          (drop): Dropout(p=0.1, inplace=False)
          (dropatt): Dropout(p=0.0, inplace=False)
          (o_net): Linear(in_features=512, out_features=960, bias=False)
          (layer_norm): LayerNorm((960,), eps=1e-05, elementwise_affine=True)
          (r_net): Linear(in_features=960, out_features=512, bias=False)
        )
        (pos_ff): PositionwiseFF(
          (CoreNet): Sequential(
            (0): Linear(in_features=960, out_features=4032, bias=True)
            (1): ReLU(inplace=True)
            (2): Dropout(p=0.1, inplace=False)
            (3): Linear(in_features=4032, out_features=960, bias=True)
            (4): Dropout(p=0.1, inplace=False)
          )
          (layer_norm): LayerNorm((960,), eps=1e-05, elementwise_affine=True)
        )
      )
      (1): RelPartialLearnableDecoderLayer(
        (dec_attn): RelPartialLearnableMultiHeadAttn(
          (qkv_net): Linear(in_features=960, out_features=1536, bias=False)
          (drop): Dropout(p=0.1, inplace=False)
          (dropatt): Dropout(p=0.0, inplace=False)
          (o_net): Linear(in_features=512, out_features=960, bias=False)
          (layer_norm): LayerNorm((960,), eps=1e-05, elementwise_affine=True)
          (r_net): Linear(in_features=960, out_features=512, bias=False)
        )
        (pos_ff): PositionwiseFF(
          (CoreNet): Sequential(
            (0): Linear(in_features=960, out_features=4032, bias=True)
            (1): ReLU(inplace=True)
            (2): Dropout(p=0.1, inplace=False)
            (3): Linear(in_features=4032, out_features=960, bias=True)
            (4): Dropout(p=0.1, inplace=False)
          )
          (layer_norm): LayerNorm((960,), eps=1e-05, elementwise_affine=True)
        )
      )
      (2): RelPartialLearnableDecoderLayer(
        (dec_attn): RelPartialLearnableMultiHeadAttn(
          (qkv_net): Linear(in_features=960, out_features=1536, bias=False)
          (drop): Dropout(p=0.1, inplace=False)
          (dropatt): Dropout(p=0.0, inplace=False)
          (o_net): Linear(in_features=512, out_features=960, bias=False)
          (layer_norm): LayerNorm((960,), eps=1e-05, elementwise_affine=True)
          (r_net): Linear(in_features=960, out_features=512, bias=False)
        )
        (pos_ff): PositionwiseFF(
          (CoreNet): Sequential(
            (0): Linear(in_features=960, out_features=4032, bias=True)
            (1): ReLU(inplace=True)
            (2): Dropout(p=0.1, inplace=False)
            (3): Linear(in_features=4032, out_features=960, bias=True)
            (4): Dropout(p=0.1, inplace=False)
          )
          (layer_norm): LayerNorm((960,), eps=1e-05, elementwise_affine=True)
        )
      )
      (3): RelPartialLearnableDecoderLayer(
        (dec_attn): RelPartialLearnableMultiHeadAttn(
          (qkv_net): Linear(in_features=960, out_features=1536, bias=False)
          (drop): Dropout(p=0.1, inplace=False)
          (dropatt): Dropout(p=0.0, inplace=False)
          (o_net): Linear(in_features=512, out_features=960, bias=False)
          (layer_norm): LayerNorm((960,), eps=1e-05, elementwise_affine=True)
          (r_net): Linear(in_features=960, out_features=512, bias=False)
        )
        (pos_ff): PositionwiseFF(
          (CoreNet): Sequential(
            (0): Linear(in_features=960, out_features=4032, bias=True)
            (1): ReLU(inplace=True)
            (2): Dropout(p=0.1, inplace=False)
            (3): Linear(in_features=4032, out_features=960, bias=True)
            (4): Dropout(p=0.1, inplace=False)
          )
          (layer_norm): LayerNorm((960,), eps=1e-05, elementwise_affine=True)
        )
      )
      (4): RelPartialLearnableDecoderLayer(
        (dec_attn): RelPartialLearnableMultiHeadAttn(
          (qkv_net): Linear(in_features=960, out_features=1536, bias=False)
          (drop): Dropout(p=0.1, inplace=False)
          (dropatt): Dropout(p=0.0, inplace=False)
          (o_net): Linear(in_features=512, out_features=960, bias=False)
          (layer_norm): LayerNorm((960,), eps=1e-05, elementwise_affine=True)
          (r_net): Linear(in_features=960, out_features=512, bias=False)
        )
        (pos_ff): PositionwiseFF(
          (CoreNet): Sequential(
            (0): Linear(in_features=960, out_features=4032, bias=True)
            (1): ReLU(inplace=True)
            (2): Dropout(p=0.1, inplace=False)
            (3): Linear(in_features=4032, out_features=960, bias=True)
            (4): Dropout(p=0.1, inplace=False)
          )
          (layer_norm): LayerNorm((960,), eps=1e-05, elementwise_affine=True)
        )
      )
      (5): RelPartialLearnableDecoderLayer(
        (dec_attn): RelPartialLearnableMultiHeadAttn(
          (qkv_net): Linear(in_features=960, out_features=1536, bias=False)
          (drop): Dropout(p=0.1, inplace=False)
          (dropatt): Dropout(p=0.0, inplace=False)
          (o_net): Linear(in_features=512, out_features=960, bias=False)
          (layer_norm): LayerNorm((960,), eps=1e-05, elementwise_affine=True)
          (r_net): Linear(in_features=960, out_features=512, bias=False)
        )
        (pos_ff): PositionwiseFF(
          (CoreNet): Sequential(
            (0): Linear(in_features=960, out_features=4032, bias=True)
            (1): ReLU(inplace=True)
            (2): Dropout(p=0.1, inplace=False)
            (3): Linear(in_features=4032, out_features=960, bias=True)
            (4): Dropout(p=0.1, inplace=False)
          )
          (layer_norm): LayerNorm((960,), eps=1e-05, elementwise_affine=True)
        )
      )
      (6): RelPartialLearnableDecoderLayer(
        (dec_attn): RelPartialLearnableMultiHeadAttn(
          (qkv_net): Linear(in_features=960, out_features=1536, bias=False)
          (drop): Dropout(p=0.1, inplace=False)
          (dropatt): Dropout(p=0.0, inplace=False)
          (o_net): Linear(in_features=512, out_features=960, bias=False)
          (layer_norm): LayerNorm((960,), eps=1e-05, elementwise_affine=True)
          (r_net): Linear(in_features=960, out_features=512, bias=False)
        )
        (pos_ff): PositionwiseFF(
          (CoreNet): Sequential(
            (0): Linear(in_features=960, out_features=4032, bias=True)
            (1): ReLU(inplace=True)
            (2): Dropout(p=0.1, inplace=False)
            (3): Linear(in_features=4032, out_features=960, bias=True)
            (4): Dropout(p=0.1, inplace=False)
          )
          (layer_norm): LayerNorm((960,), eps=1e-05, elementwise_affine=True)
        )
      )
      (7): RelPartialLearnableDecoderLayer(
        (dec_attn): RelPartialLearnableMultiHeadAttn(
          (qkv_net): Linear(in_features=960, out_features=1536, bias=False)
          (drop): Dropout(p=0.1, inplace=False)
          (dropatt): Dropout(p=0.0, inplace=False)
          (o_net): Linear(in_features=512, out_features=960, bias=False)
          (layer_norm): LayerNorm((960,), eps=1e-05, elementwise_affine=True)
          (r_net): Linear(in_features=960, out_features=512, bias=False)
        )
        (pos_ff): PositionwiseFF(
          (CoreNet): Sequential(
            (0): Linear(in_features=960, out_features=4032, bias=True)
            (1): ReLU(inplace=True)
            (2): Dropout(p=0.1, inplace=False)
            (3): Linear(in_features=4032, out_features=960, bias=True)
            (4): Dropout(p=0.1, inplace=False)
          )
          (layer_norm): LayerNorm((960,), eps=1e-05, elementwise_affine=True)
        )
      )
      (8): RelPartialLearnableDecoderLayer(
        (dec_attn): RelPartialLearnableMultiHeadAttn(
          (qkv_net): Linear(in_features=960, out_features=1536, bias=False)
          (drop): Dropout(p=0.1, inplace=False)
          (dropatt): Dropout(p=0.0, inplace=False)
          (o_net): Linear(in_features=512, out_features=960, bias=False)
          (layer_norm): LayerNorm((960,), eps=1e-05, elementwise_affine=True)
          (r_net): Linear(in_features=960, out_features=512, bias=False)
        )
        (pos_ff): PositionwiseFF(
          (CoreNet): Sequential(
            (0): Linear(in_features=960, out_features=4032, bias=True)
            (1): ReLU(inplace=True)
            (2): Dropout(p=0.1, inplace=False)
            (3): Linear(in_features=4032, out_features=960, bias=True)
            (4): Dropout(p=0.1, inplace=False)
          )
          (layer_norm): LayerNorm((960,), eps=1e-05, elementwise_affine=True)
        )
      )
      (9): RelPartialLearnableDecoderLayer(
        (dec_attn): RelPartialLearnableMultiHeadAttn(
          (qkv_net): Linear(in_features=960, out_features=1536, bias=False)
          (drop): Dropout(p=0.1, inplace=False)
          (dropatt): Dropout(p=0.0, inplace=False)
          (o_net): Linear(in_features=512, out_features=960, bias=False)
          (layer_norm): LayerNorm((960,), eps=1e-05, elementwise_affine=True)
          (r_net): Linear(in_features=960, out_features=512, bias=False)
        )
        (pos_ff): PositionwiseFF(
          (CoreNet): Sequential(
            (0): Linear(in_features=960, out_features=4032, bias=True)
            (1): ReLU(inplace=True)
            (2): Dropout(p=0.1, inplace=False)
            (3): Linear(in_features=4032, out_features=960, bias=True)
            (4): Dropout(p=0.1, inplace=False)
          )
          (layer_norm): LayerNorm((960,), eps=1e-05, elementwise_affine=True)
        )
      )
    )
    (pos_emb): PositionalEmbedding()
  )
  (crit): ProjectedAdaptiveLogSoftmax(
    (out_layers): ModuleList(
      (0): Linear(in_features=512, out_features=19997, bias=True)
      (1): Linear(in_features=128, out_features=20000, bias=True)
      (2): Linear(in_features=32, out_features=160000, bias=True)
      (3): Linear(in_features=8, out_features=67739, bias=True)
    )
    (out_projs): ParameterList(
        (0): Parameter containing: [torch.float32 of size 960x512]
        (1): Parameter containing: [torch.float32 of size 960x128]
        (2): Parameter containing: [torch.float32 of size 960x32]
        (3): Parameter containing: [torch.float32 of size 960x8]
    )
  )
)
training: True
_apply: <bound method Module._apply of HfTransfoXL(
  (model): TransfoXLLMHeadModel(
    (transformer): TransfoXLModel(
      (word_emb): AdaptiveEmbedding(
        (emb_layers): ModuleList(
          (0): Embedding(19997, 512)
          (1): Embedding(20000, 128)
          (2): Embedding(160000, 32)
          (3): Embedding(67739, 8)
        )
        (emb_projs): ParameterList(
            (0): Parameter containing: [torch.float32 of size 960x512]
            (1): Parameter containing: [torch.float32 of size 960x128]
            (2): Parameter containing: [torch.float32 of size 960x32]
            (3): Parameter containing: [torch.float32 of size 960x8]
        )
      )
      (drop): Dropout(p=0.1, inplace=False)
      (layers): ModuleList(
        (0): RelPartialLearnableDecoderLayer(
          (dec_attn): RelPartialLearnableMultiHeadAttn(
            (qkv_net): Linear(in_features=960, out_features=1536, bias=False)
            (drop): Dropout(p=0.1, inplace=False)
            (dropatt): Dropout(p=0.0, inplace=False)
            (o_net): Linear(in_features=512, out_features=960, bias=False)
            (layer_norm): LayerNorm((960,), eps=1e-05, elementwise_affine=True)
            (r_net): Linear(in_features=960, out_features=512, bias=False)
          )
          (pos_ff): PositionwiseFF(
            (CoreNet): Sequential(
              (0): Linear(in_features=960, out_features=4032, bias=True)
              (1): ReLU(inplace=True)
              (2): Dropout(p=0.1, inplace=False)
              (3): Linear(in_features=4032, out_features=960, bias=True)
              (4): Dropout(p=0.1, inplace=False)
            )
            (layer_norm): LayerNorm((960,), eps=1e-05, elementwise_affine=True)
          )
        )
        (1): RelPartialLearnableDecoderLayer(
          (dec_attn): RelPartialLearnableMultiHeadAttn(
            (qkv_net): Linear(in_features=960, out_features=1536, bias=False)
            (drop): Dropout(p=0.1, inplace=False)
            (dropatt): Dropout(p=0.0, inplace=False)
            (o_net): Linear(in_features=512, out_features=960, bias=False)
            (layer_norm): LayerNorm((960,), eps=1e-05, elementwise_affine=True)
            (r_net): Linear(in_features=960, out_features=512, bias=False)
          )
          (pos_ff): PositionwiseFF(
            (CoreNet): Sequential(
              (0): Linear(in_features=960, out_features=4032, bias=True)
              (1): ReLU(inplace=True)
              (2): Dropout(p=0.1, inplace=False)
              (3): Linear(in_features=4032, out_features=960, bias=True)
              (4): Dropout(p=0.1, inplace=False)
            )
            (layer_norm): LayerNorm((960,), eps=1e-05, elementwise_affine=True)
          )
        )
        (2): RelPartialLearnableDecoderLayer(
          (dec_attn): RelPartialLearnableMultiHeadAttn(
            (qkv_net): Linear(in_features=960, out_features=1536, bias=False)
            (drop): Dropout(p=0.1, inplace=False)
            (dropatt): Dropout(p=0.0, inplace=False)
            (o_net): Linear(in_features=512, out_features=960, bias=False)
            (layer_norm): LayerNorm((960,), eps=1e-05, elementwise_affine=True)
            (r_net): Linear(in_features=960, out_features=512, bias=False)
          )
          (pos_ff): PositionwiseFF(
            (CoreNet): Sequential(
              (0): Linear(in_features=960, out_features=4032, bias=True)
              (1): ReLU(inplace=True)
              (2): Dropout(p=0.1, inplace=False)
              (3): Linear(in_features=4032, out_features=960, bias=True)
              (4): Dropout(p=0.1, inplace=False)
            )
            (layer_norm): LayerNorm((960,), eps=1e-05, elementwise_affine=True)
          )
        )
        (3): RelPartialLearnableDecoderLayer(
          (dec_attn): RelPartialLearnableMultiHeadAttn(
            (qkv_net): Linear(in_features=960, out_features=1536, bias=False)
            (drop): Dropout(p=0.1, inplace=False)
            (dropatt): Dropout(p=0.0, inplace=False)
            (o_net): Linear(in_features=512, out_features=960, bias=False)
            (layer_norm): LayerNorm((960,), eps=1e-05, elementwise_affine=True)
            (r_net): Linear(in_features=960, out_features=512, bias=False)
          )
          (pos_ff): PositionwiseFF(
            (CoreNet): Sequential(
              (0): Linear(in_features=960, out_features=4032, bias=True)
              (1): ReLU(inplace=True)
              (2): Dropout(p=0.1, inplace=False)
              (3): Linear(in_features=4032, out_features=960, bias=True)
              (4): Dropout(p=0.1, inplace=False)
            )
            (layer_norm): LayerNorm((960,), eps=1e-05, elementwise_affine=True)
          )
        )
        (4): RelPartialLearnableDecoderLayer(
          (dec_attn): RelPartialLearnableMultiHeadAttn(
            (qkv_net): Linear(in_features=960, out_features=1536, bias=False)
            (drop): Dropout(p=0.1, inplace=False)
            (dropatt): Dropout(p=0.0, inplace=False)
            (o_net): Linear(in_features=512, out_features=960, bias=False)
            (layer_norm): LayerNorm((960,), eps=1e-05, elementwise_affine=True)
            (r_net): Linear(in_features=960, out_features=512, bias=False)
          )
          (pos_ff): PositionwiseFF(
            (CoreNet): Sequential(
              (0): Linear(in_features=960, out_features=4032, bias=True)
              (1): ReLU(inplace=True)
              (2): Dropout(p=0.1, inplace=False)
              (3): Linear(in_features=4032, out_features=960, bias=True)
              (4): Dropout(p=0.1, inplace=False)
            )
            (layer_norm): LayerNorm((960,), eps=1e-05, elementwise_affine=True)
          )
        )
        (5): RelPartialLearnableDecoderLayer(
          (dec_attn): RelPartialLearnableMultiHeadAttn(
            (qkv_net): Linear(in_features=960, out_features=1536, bias=False)
            (drop): Dropout(p=0.1, inplace=False)
            (dropatt): Dropout(p=0.0, inplace=False)
            (o_net): Linear(in_features=512, out_features=960, bias=False)
            (layer_norm): LayerNorm((960,), eps=1e-05, elementwise_affine=True)
            (r_net): Linear(in_features=960, out_features=512, bias=False)
          )
          (pos_ff): PositionwiseFF(
            (CoreNet): Sequential(
              (0): Linear(in_features=960, out_features=4032, bias=True)
              (1): ReLU(inplace=True)
              (2): Dropout(p=0.1, inplace=False)
              (3): Linear(in_features=4032, out_features=960, bias=True)
              (4): Dropout(p=0.1, inplace=False)
            )
            (layer_norm): LayerNorm((960,), eps=1e-05, elementwise_affine=True)
          )
        )
        (6): RelPartialLearnableDecoderLayer(
          (dec_attn): RelPartialLearnableMultiHeadAttn(
            (qkv_net): Linear(in_features=960, out_features=1536, bias=False)
            (drop): Dropout(p=0.1, inplace=False)
            (dropatt): Dropout(p=0.0, inplace=False)
            (o_net): Linear(in_features=512, out_features=960, bias=False)
            (layer_norm): LayerNorm((960,), eps=1e-05, elementwise_affine=True)
            (r_net): Linear(in_features=960, out_features=512, bias=False)
          )
          (pos_ff): PositionwiseFF(
            (CoreNet): Sequential(
              (0): Linear(in_features=960, out_features=4032, bias=True)
              (1): ReLU(inplace=True)
              (2): Dropout(p=0.1, inplace=False)
              (3): Linear(in_features=4032, out_features=960, bias=True)
              (4): Dropout(p=0.1, inplace=False)
            )
            (layer_norm): LayerNorm((960,), eps=1e-05, elementwise_affine=True)
          )
        )
        (7): RelPartialLearnableDecoderLayer(
          (dec_attn): RelPartialLearnableMultiHeadAttn(
            (qkv_net): Linear(in_features=960, out_features=1536, bias=False)
            (drop): Dropout(p=0.1, inplace=False)
            (dropatt): Dropout(p=0.0, inplace=False)
            (o_net): Linear(in_features=512, out_features=960, bias=False)
            (layer_norm): LayerNorm((960,), eps=1e-05, elementwise_affine=True)
            (r_net): Linear(in_features=960, out_features=512, bias=False)
          )
          (pos_ff): PositionwiseFF(
            (CoreNet): Sequential(
              (0): Linear(in_features=960, out_features=4032, bias=True)
              (1): ReLU(inplace=True)
              (2): Dropout(p=0.1, inplace=False)
              (3): Linear(in_features=4032, out_features=960, bias=True)
              (4): Dropout(p=0.1, inplace=False)
            )
            (layer_norm): LayerNorm((960,), eps=1e-05, elementwise_affine=True)
          )
        )
        (8): RelPartialLearnableDecoderLayer(
          (dec_attn): RelPartialLearnableMultiHeadAttn(
            (qkv_net): Linear(in_features=960, out_features=1536, bias=False)
            (drop): Dropout(p=0.1, inplace=False)
            (dropatt): Dropout(p=0.0, inplace=False)
            (o_net): Linear(in_features=512, out_features=960, bias=False)
            (layer_norm): LayerNorm((960,), eps=1e-05, elementwise_affine=True)
            (r_net): Linear(in_features=960, out_features=512, bias=False)
          )
          (pos_ff): PositionwiseFF(
            (CoreNet): Sequential(
              (0): Linear(in_features=960, out_features=4032, bias=True)
              (1): ReLU(inplace=True)
              (2): Dropout(p=0.1, inplace=False)
              (3): Linear(in_features=4032, out_features=960, bias=True)
              (4): Dropout(p=0.1, inplace=False)
            )
            (layer_norm): LayerNorm((960,), eps=1e-05, elementwise_affine=True)
          )
        )
        (9): RelPartialLearnableDecoderLayer(
          (dec_attn): RelPartialLearnableMultiHeadAttn(
            (qkv_net): Linear(in_features=960, out_features=1536, bias=False)
            (drop): Dropout(p=0.1, inplace=False)
            (dropatt): Dropout(p=0.0, inplace=False)
            (o_net): Linear(in_features=512, out_features=960, bias=False)
            (layer_norm): LayerNorm((960,), eps=1e-05, elementwise_affine=True)
            (r_net): Linear(in_features=960, out_features=512, bias=False)
          )
          (pos_ff): PositionwiseFF(
            (CoreNet): Sequential(
              (0): Linear(in_features=960, out_features=4032, bias=True)
              (1): ReLU(inplace=True)
              (2): Dropout(p=0.1, inplace=False)
              (3): Linear(in_features=4032, out_features=960, bias=True)
              (4): Dropout(p=0.1, inplace=False)
            )
            (layer_norm): LayerNorm((960,), eps=1e-05, elementwise_affine=True)
          )
        )
      )
      (pos_emb): PositionalEmbedding()
    )
    (crit): ProjectedAdaptiveLogSoftmax(
      (out_layers): ModuleList(
        (0): Linear(in_features=512, out_features=19997, bias=True)
        (1): Linear(in_features=128, out_features=20000, bias=True)
        (2): Linear(in_features=32, out_features=160000, bias=True)
        (3): Linear(in_features=8, out_features=67739, bias=True)
      )
      (out_projs): ParameterList(
          (0): Parameter containing: [torch.float32 of size 960x512]
          (1): Parameter containing: [torch.float32 of size 960x128]
          (2): Parameter containing: [torch.float32 of size 960x32]
          (3): Parameter containing: [torch.float32 of size 960x8]
      )
    )
  )
)>
_backward_hooks: OrderedDict([])
_buffers: OrderedDict([])
_call_impl: <bound method Module._call_impl of HfTransfoXL(
  (model): TransfoXLLMHeadModel(
    (transformer): TransfoXLModel(
      (word_emb): AdaptiveEmbedding(
        (emb_layers): ModuleList(
          (0): Embedding(19997, 512)
          (1): Embedding(20000, 128)
          (2): Embedding(160000, 32)
          (3): Embedding(67739, 8)
        )
        (emb_projs): ParameterList(
            (0): Parameter containing: [torch.float32 of size 960x512]
            (1): Parameter containing: [torch.float32 of size 960x128]
            (2): Parameter containing: [torch.float32 of size 960x32]
            (3): Parameter containing: [torch.float32 of size 960x8]
        )
      )
      (drop): Dropout(p=0.1, inplace=False)
      (layers): ModuleList(
        (0): RelPartialLearnableDecoderLayer(
          (dec_attn): RelPartialLearnableMultiHeadAttn(
            (qkv_net): Linear(in_features=960, out_features=1536, bias=False)
            (drop): Dropout(p=0.1, inplace=False)
            (dropatt): Dropout(p=0.0, inplace=False)
            (o_net): Linear(in_features=512, out_features=960, bias=False)
            (layer_norm): LayerNorm((960,), eps=1e-05, elementwise_affine=True)
            (r_net): Linear(in_features=960, out_features=512, bias=False)
          )
          (pos_ff): PositionwiseFF(
            (CoreNet): Sequential(
              (0): Linear(in_features=960, out_features=4032, bias=True)
              (1): ReLU(inplace=True)
              (2): Dropout(p=0.1, inplace=False)
              (3): Linear(in_features=4032, out_features=960, bias=True)
              (4): Dropout(p=0.1, inplace=False)
            )
            (layer_norm): LayerNorm((960,), eps=1e-05, elementwise_affine=True)
          )
        )
        (1): RelPartialLearnableDecoderLayer(
          (dec_attn): RelPartialLearnableMultiHeadAttn(
            (qkv_net): Linear(in_features=960, out_features=1536, bias=False)
            (drop): Dropout(p=0.1, inplace=False)
            (dropatt): Dropout(p=0.0, inplace=False)
            (o_net): Linear(in_features=512, out_features=960, bias=False)
            (layer_norm): LayerNorm((960,), eps=1e-05, elementwise_affine=True)
            (r_net): Linear(in_features=960, out_features=512, bias=False)
          )
          (pos_ff): PositionwiseFF(
            (CoreNet): Sequential(
              (0): Linear(in_features=960, out_features=4032, bias=True)
              (1): ReLU(inplace=True)
              (2): Dropout(p=0.1, inplace=False)
              (3): Linear(in_features=4032, out_features=960, bias=True)
              (4): Dropout(p=0.1, inplace=False)
            )
            (layer_norm): LayerNorm((960,), eps=1e-05, elementwise_affine=True)
          )
        )
        (2): RelPartialLearnableDecoderLayer(
          (dec_attn): RelPartialLearnableMultiHeadAttn(
            (qkv_net): Linear(in_features=960, out_features=1536, bias=False)
            (drop): Dropout(p=0.1, inplace=False)
            (dropatt): Dropout(p=0.0, inplace=False)
            (o_net): Linear(in_features=512, out_features=960, bias=False)
            (layer_norm): LayerNorm((960,), eps=1e-05, elementwise_affine=True)
            (r_net): Linear(in_features=960, out_features=512, bias=False)
          )
          (pos_ff): PositionwiseFF(
            (CoreNet): Sequential(
              (0): Linear(in_features=960, out_features=4032, bias=True)
              (1): ReLU(inplace=True)
              (2): Dropout(p=0.1, inplace=False)
              (3): Linear(in_features=4032, out_features=960, bias=True)
              (4): Dropout(p=0.1, inplace=False)
            )
            (layer_norm): LayerNorm((960,), eps=1e-05, elementwise_affine=True)
          )
        )
        (3): RelPartialLearnableDecoderLayer(
          (dec_attn): RelPartialLearnableMultiHeadAttn(
            (qkv_net): Linear(in_features=960, out_features=1536, bias=False)
            (drop): Dropout(p=0.1, inplace=False)
            (dropatt): Dropout(p=0.0, inplace=False)
            (o_net): Linear(in_features=512, out_features=960, bias=False)
            (layer_norm): LayerNorm((960,), eps=1e-05, elementwise_affine=True)
            (r_net): Linear(in_features=960, out_features=512, bias=False)
          )
          (pos_ff): PositionwiseFF(
            (CoreNet): Sequential(
              (0): Linear(in_features=960, out_features=4032, bias=True)
              (1): ReLU(inplace=True)
              (2): Dropout(p=0.1, inplace=False)
              (3): Linear(in_features=4032, out_features=960, bias=True)
              (4): Dropout(p=0.1, inplace=False)
            )
            (layer_norm): LayerNorm((960,), eps=1e-05, elementwise_affine=True)
          )
        )
        (4): RelPartialLearnableDecoderLayer(
          (dec_attn): RelPartialLearnableMultiHeadAttn(
            (qkv_net): Linear(in_features=960, out_features=1536, bias=False)
            (drop): Dropout(p=0.1, inplace=False)
            (dropatt): Dropout(p=0.0, inplace=False)
            (o_net): Linear(in_features=512, out_features=960, bias=False)
            (layer_norm): LayerNorm((960,), eps=1e-05, elementwise_affine=True)
            (r_net): Linear(in_features=960, out_features=512, bias=False)
          )
          (pos_ff): PositionwiseFF(
            (CoreNet): Sequential(
              (0): Linear(in_features=960, out_features=4032, bias=True)
              (1): ReLU(inplace=True)
              (2): Dropout(p=0.1, inplace=False)
              (3): Linear(in_features=4032, out_features=960, bias=True)
              (4): Dropout(p=0.1, inplace=False)
            )
            (layer_norm): LayerNorm((960,), eps=1e-05, elementwise_affine=True)
          )
        )
        (5): RelPartialLearnableDecoderLayer(
          (dec_attn): RelPartialLearnableMultiHeadAttn(
            (qkv_net): Linear(in_features=960, out_features=1536, bias=False)
            (drop): Dropout(p=0.1, inplace=False)
            (dropatt): Dropout(p=0.0, inplace=False)
            (o_net): Linear(in_features=512, out_features=960, bias=False)
            (layer_norm): LayerNorm((960,), eps=1e-05, elementwise_affine=True)
            (r_net): Linear(in_features=960, out_features=512, bias=False)
          )
          (pos_ff): PositionwiseFF(
            (CoreNet): Sequential(
              (0): Linear(in_features=960, out_features=4032, bias=True)
              (1): ReLU(inplace=True)
              (2): Dropout(p=0.1, inplace=False)
              (3): Linear(in_features=4032, out_features=960, bias=True)
              (4): Dropout(p=0.1, inplace=False)
            )
            (layer_norm): LayerNorm((960,), eps=1e-05, elementwise_affine=True)
          )
        )
        (6): RelPartialLearnableDecoderLayer(
          (dec_attn): RelPartialLearnableMultiHeadAttn(
            (qkv_net): Linear(in_features=960, out_features=1536, bias=False)
            (drop): Dropout(p=0.1, inplace=False)
            (dropatt): Dropout(p=0.0, inplace=False)
            (o_net): Linear(in_features=512, out_features=960, bias=False)
            (layer_norm): LayerNorm((960,), eps=1e-05, elementwise_affine=True)
            (r_net): Linear(in_features=960, out_features=512, bias=False)
          )
          (pos_ff): PositionwiseFF(
            (CoreNet): Sequential(
              (0): Linear(in_features=960, out_features=4032, bias=True)
              (1): ReLU(inplace=True)
              (2): Dropout(p=0.1, inplace=False)
              (3): Linear(in_features=4032, out_features=960, bias=True)
              (4): Dropout(p=0.1, inplace=False)
            )
            (layer_norm): LayerNorm((960,), eps=1e-05, elementwise_affine=True)
          )
        )
        (7): RelPartialLearnableDecoderLayer(
          (dec_attn): RelPartialLearnableMultiHeadAttn(
            (qkv_net): Linear(in_features=960, out_features=1536, bias=False)
            (drop): Dropout(p=0.1, inplace=False)
            (dropatt): Dropout(p=0.0, inplace=False)
            (o_net): Linear(in_features=512, out_features=960, bias=False)
            (layer_norm): LayerNorm((960,), eps=1e-05, elementwise_affine=True)
            (r_net): Linear(in_features=960, out_features=512, bias=False)
          )
          (pos_ff): PositionwiseFF(
            (CoreNet): Sequential(
              (0): Linear(in_features=960, out_features=4032, bias=True)
              (1): ReLU(inplace=True)
              (2): Dropout(p=0.1, inplace=False)
              (3): Linear(in_features=4032, out_features=960, bias=True)
              (4): Dropout(p=0.1, inplace=False)
            )
            (layer_norm): LayerNorm((960,), eps=1e-05, elementwise_affine=True)
          )
        )
        (8): RelPartialLearnableDecoderLayer(
          (dec_attn): RelPartialLearnableMultiHeadAttn(
            (qkv_net): Linear(in_features=960, out_features=1536, bias=False)
            (drop): Dropout(p=0.1, inplace=False)
            (dropatt): Dropout(p=0.0, inplace=False)
            (o_net): Linear(in_features=512, out_features=960, bias=False)
            (layer_norm): LayerNorm((960,), eps=1e-05, elementwise_affine=True)
            (r_net): Linear(in_features=960, out_features=512, bias=False)
          )
          (pos_ff): PositionwiseFF(
            (CoreNet): Sequential(
              (0): Linear(in_features=960, out_features=4032, bias=True)
              (1): ReLU(inplace=True)
              (2): Dropout(p=0.1, inplace=False)
              (3): Linear(in_features=4032, out_features=960, bias=True)
              (4): Dropout(p=0.1, inplace=False)
            )
            (layer_norm): LayerNorm((960,), eps=1e-05, elementwise_affine=True)
          )
        )
        (9): RelPartialLearnableDecoderLayer(
          (dec_attn): RelPartialLearnableMultiHeadAttn(
            (qkv_net): Linear(in_features=960, out_features=1536, bias=False)
            (drop): Dropout(p=0.1, inplace=False)
            (dropatt): Dropout(p=0.0, inplace=False)
            (o_net): Linear(in_features=512, out_features=960, bias=False)
            (layer_norm): LayerNorm((960,), eps=1e-05, elementwise_affine=True)
            (r_net): Linear(in_features=960, out_features=512, bias=False)
          )
          (pos_ff): PositionwiseFF(
            (CoreNet): Sequential(
              (0): Linear(in_features=960, out_features=4032, bias=True)
              (1): ReLU(inplace=True)
              (2): Dropout(p=0.1, inplace=False)
              (3): Linear(in_features=4032, out_features=960, bias=True)
              (4): Dropout(p=0.1, inplace=False)
            )
            (layer_norm): LayerNorm((960,), eps=1e-05, elementwise_affine=True)
          )
        )
      )
      (pos_emb): PositionalEmbedding()
    )
    (crit): ProjectedAdaptiveLogSoftmax(
      (out_layers): ModuleList(
        (0): Linear(in_features=512, out_features=19997, bias=True)
        (1): Linear(in_features=128, out_features=20000, bias=True)
        (2): Linear(in_features=32, out_features=160000, bias=True)
        (3): Linear(in_features=8, out_features=67739, bias=True)
      )
      (out_projs): ParameterList(
          (0): Parameter containing: [torch.float32 of size 960x512]
          (1): Parameter containing: [torch.float32 of size 960x128]
          (2): Parameter containing: [torch.float32 of size 960x32]
          (3): Parameter containing: [torch.float32 of size 960x8]
      )
    )
  )
)>
_forward_hooks: OrderedDict([])
_forward_pre_hooks: OrderedDict([])
_get_backward_hooks: <bound method Module._get_backward_hooks of HfTransfoXL(
  (model): TransfoXLLMHeadModel(
    (transformer): TransfoXLModel(
      (word_emb): AdaptiveEmbedding(
        (emb_layers): ModuleList(
          (0): Embedding(19997, 512)
          (1): Embedding(20000, 128)
          (2): Embedding(160000, 32)
          (3): Embedding(67739, 8)
        )
        (emb_projs): ParameterList(
            (0): Parameter containing: [torch.float32 of size 960x512]
            (1): Parameter containing: [torch.float32 of size 960x128]
            (2): Parameter containing: [torch.float32 of size 960x32]
            (3): Parameter containing: [torch.float32 of size 960x8]
        )
      )
      (drop): Dropout(p=0.1, inplace=False)
      (layers): ModuleList(
        (0): RelPartialLearnableDecoderLayer(
          (dec_attn): RelPartialLearnableMultiHeadAttn(
            (qkv_net): Linear(in_features=960, out_features=1536, bias=False)
            (drop): Dropout(p=0.1, inplace=False)
            (dropatt): Dropout(p=0.0, inplace=False)
            (o_net): Linear(in_features=512, out_features=960, bias=False)
            (layer_norm): LayerNorm((960,), eps=1e-05, elementwise_affine=True)
            (r_net): Linear(in_features=960, out_features=512, bias=False)
          )
          (pos_ff): PositionwiseFF(
            (CoreNet): Sequential(
              (0): Linear(in_features=960, out_features=4032, bias=True)
              (1): ReLU(inplace=True)
              (2): Dropout(p=0.1, inplace=False)
              (3): Linear(in_features=4032, out_features=960, bias=True)
              (4): Dropout(p=0.1, inplace=False)
            )
            (layer_norm): LayerNorm((960,), eps=1e-05, elementwise_affine=True)
          )
        )
        (1): RelPartialLearnableDecoderLayer(
          (dec_attn): RelPartialLearnableMultiHeadAttn(
            (qkv_net): Linear(in_features=960, out_features=1536, bias=False)
            (drop): Dropout(p=0.1, inplace=False)
            (dropatt): Dropout(p=0.0, inplace=False)
            (o_net): Linear(in_features=512, out_features=960, bias=False)
            (layer_norm): LayerNorm((960,), eps=1e-05, elementwise_affine=True)
            (r_net): Linear(in_features=960, out_features=512, bias=False)
          )
          (pos_ff): PositionwiseFF(
            (CoreNet): Sequential(
              (0): Linear(in_features=960, out_features=4032, bias=True)
              (1): ReLU(inplace=True)
              (2): Dropout(p=0.1, inplace=False)
              (3): Linear(in_features=4032, out_features=960, bias=True)
              (4): Dropout(p=0.1, inplace=False)
            )
            (layer_norm): LayerNorm((960,), eps=1e-05, elementwise_affine=True)
          )
        )
        (2): RelPartialLearnableDecoderLayer(
          (dec_attn): RelPartialLearnableMultiHeadAttn(
            (qkv_net): Linear(in_features=960, out_features=1536, bias=False)
            (drop): Dropout(p=0.1, inplace=False)
            (dropatt): Dropout(p=0.0, inplace=False)
            (o_net): Linear(in_features=512, out_features=960, bias=False)
            (layer_norm): LayerNorm((960,), eps=1e-05, elementwise_affine=True)
            (r_net): Linear(in_features=960, out_features=512, bias=False)
          )
          (pos_ff): PositionwiseFF(
            (CoreNet): Sequential(
              (0): Linear(in_features=960, out_features=4032, bias=True)
              (1): ReLU(inplace=True)
              (2): Dropout(p=0.1, inplace=False)
              (3): Linear(in_features=4032, out_features=960, bias=True)
              (4): Dropout(p=0.1, inplace=False)
            )
            (layer_norm): LayerNorm((960,), eps=1e-05, elementwise_affine=True)
          )
        )
        (3): RelPartialLearnableDecoderLayer(
          (dec_attn): RelPartialLearnableMultiHeadAttn(
            (qkv_net): Linear(in_features=960, out_features=1536, bias=False)
            (drop): Dropout(p=0.1, inplace=False)
            (dropatt): Dropout(p=0.0, inplace=False)
            (o_net): Linear(in_features=512, out_features=960, bias=False)
            (layer_norm): LayerNorm((960,), eps=1e-05, elementwise_affine=True)
            (r_net): Linear(in_features=960, out_features=512, bias=False)
          )
          (pos_ff): PositionwiseFF(
            (CoreNet): Sequential(
              (0): Linear(in_features=960, out_features=4032, bias=True)
              (1): ReLU(inplace=True)
              (2): Dropout(p=0.1, inplace=False)
              (3): Linear(in_features=4032, out_features=960, bias=True)
              (4): Dropout(p=0.1, inplace=False)
            )
            (layer_norm): LayerNorm((960,), eps=1e-05, elementwise_affine=True)
          )
        )
        (4): RelPartialLearnableDecoderLayer(
          (dec_attn): RelPartialLearnableMultiHeadAttn(
            (qkv_net): Linear(in_features=960, out_features=1536, bias=False)
            (drop): Dropout(p=0.1, inplace=False)
            (dropatt): Dropout(p=0.0, inplace=False)
            (o_net): Linear(in_features=512, out_features=960, bias=False)
            (layer_norm): LayerNorm((960,), eps=1e-05, elementwise_affine=True)
            (r_net): Linear(in_features=960, out_features=512, bias=False)
          )
          (pos_ff): PositionwiseFF(
            (CoreNet): Sequential(
              (0): Linear(in_features=960, out_features=4032, bias=True)
              (1): ReLU(inplace=True)
              (2): Dropout(p=0.1, inplace=False)
              (3): Linear(in_features=4032, out_features=960, bias=True)
              (4): Dropout(p=0.1, inplace=False)
            )
            (layer_norm): LayerNorm((960,), eps=1e-05, elementwise_affine=True)
          )
        )
        (5): RelPartialLearnableDecoderLayer(
          (dec_attn): RelPartialLearnableMultiHeadAttn(
            (qkv_net): Linear(in_features=960, out_features=1536, bias=False)
            (drop): Dropout(p=0.1, inplace=False)
            (dropatt): Dropout(p=0.0, inplace=False)
            (o_net): Linear(in_features=512, out_features=960, bias=False)
            (layer_norm): LayerNorm((960,), eps=1e-05, elementwise_affine=True)
            (r_net): Linear(in_features=960, out_features=512, bias=False)
          )
          (pos_ff): PositionwiseFF(
            (CoreNet): Sequential(
              (0): Linear(in_features=960, out_features=4032, bias=True)
              (1): ReLU(inplace=True)
              (2): Dropout(p=0.1, inplace=False)
              (3): Linear(in_features=4032, out_features=960, bias=True)
              (4): Dropout(p=0.1, inplace=False)
            )
            (layer_norm): LayerNorm((960,), eps=1e-05, elementwise_affine=True)
          )
        )
        (6): RelPartialLearnableDecoderLayer(
          (dec_attn): RelPartialLearnableMultiHeadAttn(
            (qkv_net): Linear(in_features=960, out_features=1536, bias=False)
            (drop): Dropout(p=0.1, inplace=False)
            (dropatt): Dropout(p=0.0, inplace=False)
            (o_net): Linear(in_features=512, out_features=960, bias=False)
            (layer_norm): LayerNorm((960,), eps=1e-05, elementwise_affine=True)
            (r_net): Linear(in_features=960, out_features=512, bias=False)
          )
          (pos_ff): PositionwiseFF(
            (CoreNet): Sequential(
              (0): Linear(in_features=960, out_features=4032, bias=True)
              (1): ReLU(inplace=True)
              (2): Dropout(p=0.1, inplace=False)
              (3): Linear(in_features=4032, out_features=960, bias=True)
              (4): Dropout(p=0.1, inplace=False)
            )
            (layer_norm): LayerNorm((960,), eps=1e-05, elementwise_affine=True)
          )
        )
        (7): RelPartialLearnableDecoderLayer(
          (dec_attn): RelPartialLearnableMultiHeadAttn(
            (qkv_net): Linear(in_features=960, out_features=1536, bias=False)
            (drop): Dropout(p=0.1, inplace=False)
            (dropatt): Dropout(p=0.0, inplace=False)
            (o_net): Linear(in_features=512, out_features=960, bias=False)
            (layer_norm): LayerNorm((960,), eps=1e-05, elementwise_affine=True)
            (r_net): Linear(in_features=960, out_features=512, bias=False)
          )
          (pos_ff): PositionwiseFF(
            (CoreNet): Sequential(
              (0): Linear(in_features=960, out_features=4032, bias=True)
              (1): ReLU(inplace=True)
              (2): Dropout(p=0.1, inplace=False)
              (3): Linear(in_features=4032, out_features=960, bias=True)
              (4): Dropout(p=0.1, inplace=False)
            )
            (layer_norm): LayerNorm((960,), eps=1e-05, elementwise_affine=True)
          )
        )
        (8): RelPartialLearnableDecoderLayer(
          (dec_attn): RelPartialLearnableMultiHeadAttn(
            (qkv_net): Linear(in_features=960, out_features=1536, bias=False)
            (drop): Dropout(p=0.1, inplace=False)
            (dropatt): Dropout(p=0.0, inplace=False)
            (o_net): Linear(in_features=512, out_features=960, bias=False)
            (layer_norm): LayerNorm((960,), eps=1e-05, elementwise_affine=True)
            (r_net): Linear(in_features=960, out_features=512, bias=False)
          )
          (pos_ff): PositionwiseFF(
            (CoreNet): Sequential(
              (0): Linear(in_features=960, out_features=4032, bias=True)
              (1): ReLU(inplace=True)
              (2): Dropout(p=0.1, inplace=False)
              (3): Linear(in_features=4032, out_features=960, bias=True)
              (4): Dropout(p=0.1, inplace=False)
            )
            (layer_norm): LayerNorm((960,), eps=1e-05, elementwise_affine=True)
          )
        )
        (9): RelPartialLearnableDecoderLayer(
          (dec_attn): RelPartialLearnableMultiHeadAttn(
            (qkv_net): Linear(in_features=960, out_features=1536, bias=False)
            (drop): Dropout(p=0.1, inplace=False)
            (dropatt): Dropout(p=0.0, inplace=False)
            (o_net): Linear(in_features=512, out_features=960, bias=False)
            (layer_norm): LayerNorm((960,), eps=1e-05, elementwise_affine=True)
            (r_net): Linear(in_features=960, out_features=512, bias=False)
          )
          (pos_ff): PositionwiseFF(
            (CoreNet): Sequential(
              (0): Linear(in_features=960, out_features=4032, bias=True)
              (1): ReLU(inplace=True)
              (2): Dropout(p=0.1, inplace=False)
              (3): Linear(in_features=4032, out_features=960, bias=True)
              (4): Dropout(p=0.1, inplace=False)
            )
            (layer_norm): LayerNorm((960,), eps=1e-05, elementwise_affine=True)
          )
        )
      )
      (pos_emb): PositionalEmbedding()
    )
    (crit): ProjectedAdaptiveLogSoftmax(
      (out_layers): ModuleList(
        (0): Linear(in_features=512, out_features=19997, bias=True)
        (1): Linear(in_features=128, out_features=20000, bias=True)
        (2): Linear(in_features=32, out_features=160000, bias=True)
        (3): Linear(in_features=8, out_features=67739, bias=True)
      )
      (out_projs): ParameterList(
          (0): Parameter containing: [torch.float32 of size 960x512]
          (1): Parameter containing: [torch.float32 of size 960x128]
          (2): Parameter containing: [torch.float32 of size 960x32]
          (3): Parameter containing: [torch.float32 of size 960x8]
      )
    )
  )
)>
_get_name: <bound method Module._get_name of HfTransfoXL(
  (model): TransfoXLLMHeadModel(
    (transformer): TransfoXLModel(
      (word_emb): AdaptiveEmbedding(
        (emb_layers): ModuleList(
          (0): Embedding(19997, 512)
          (1): Embedding(20000, 128)
          (2): Embedding(160000, 32)
          (3): Embedding(67739, 8)
        )
        (emb_projs): ParameterList(
            (0): Parameter containing: [torch.float32 of size 960x512]
            (1): Parameter containing: [torch.float32 of size 960x128]
            (2): Parameter containing: [torch.float32 of size 960x32]
            (3): Parameter containing: [torch.float32 of size 960x8]
        )
      )
      (drop): Dropout(p=0.1, inplace=False)
      (layers): ModuleList(
        (0): RelPartialLearnableDecoderLayer(
          (dec_attn): RelPartialLearnableMultiHeadAttn(
            (qkv_net): Linear(in_features=960, out_features=1536, bias=False)
            (drop): Dropout(p=0.1, inplace=False)
            (dropatt): Dropout(p=0.0, inplace=False)
            (o_net): Linear(in_features=512, out_features=960, bias=False)
            (layer_norm): LayerNorm((960,), eps=1e-05, elementwise_affine=True)
            (r_net): Linear(in_features=960, out_features=512, bias=False)
          )
          (pos_ff): PositionwiseFF(
            (CoreNet): Sequential(
              (0): Linear(in_features=960, out_features=4032, bias=True)
              (1): ReLU(inplace=True)
              (2): Dropout(p=0.1, inplace=False)
              (3): Linear(in_features=4032, out_features=960, bias=True)
              (4): Dropout(p=0.1, inplace=False)
            )
            (layer_norm): LayerNorm((960,), eps=1e-05, elementwise_affine=True)
          )
        )
        (1): RelPartialLearnableDecoderLayer(
          (dec_attn): RelPartialLearnableMultiHeadAttn(
            (qkv_net): Linear(in_features=960, out_features=1536, bias=False)
            (drop): Dropout(p=0.1, inplace=False)
            (dropatt): Dropout(p=0.0, inplace=False)
            (o_net): Linear(in_features=512, out_features=960, bias=False)
            (layer_norm): LayerNorm((960,), eps=1e-05, elementwise_affine=True)
            (r_net): Linear(in_features=960, out_features=512, bias=False)
          )
          (pos_ff): PositionwiseFF(
            (CoreNet): Sequential(
              (0): Linear(in_features=960, out_features=4032, bias=True)
              (1): ReLU(inplace=True)
              (2): Dropout(p=0.1, inplace=False)
              (3): Linear(in_features=4032, out_features=960, bias=True)
              (4): Dropout(p=0.1, inplace=False)
            )
            (layer_norm): LayerNorm((960,), eps=1e-05, elementwise_affine=True)
          )
        )
        (2): RelPartialLearnableDecoderLayer(
          (dec_attn): RelPartialLearnableMultiHeadAttn(
            (qkv_net): Linear(in_features=960, out_features=1536, bias=False)
            (drop): Dropout(p=0.1, inplace=False)
            (dropatt): Dropout(p=0.0, inplace=False)
            (o_net): Linear(in_features=512, out_features=960, bias=False)
            (layer_norm): LayerNorm((960,), eps=1e-05, elementwise_affine=True)
            (r_net): Linear(in_features=960, out_features=512, bias=False)
          )
          (pos_ff): PositionwiseFF(
            (CoreNet): Sequential(
              (0): Linear(in_features=960, out_features=4032, bias=True)
              (1): ReLU(inplace=True)
              (2): Dropout(p=0.1, inplace=False)
              (3): Linear(in_features=4032, out_features=960, bias=True)
              (4): Dropout(p=0.1, inplace=False)
            )
            (layer_norm): LayerNorm((960,), eps=1e-05, elementwise_affine=True)
          )
        )
        (3): RelPartialLearnableDecoderLayer(
          (dec_attn): RelPartialLearnableMultiHeadAttn(
            (qkv_net): Linear(in_features=960, out_features=1536, bias=False)
            (drop): Dropout(p=0.1, inplace=False)
            (dropatt): Dropout(p=0.0, inplace=False)
            (o_net): Linear(in_features=512, out_features=960, bias=False)
            (layer_norm): LayerNorm((960,), eps=1e-05, elementwise_affine=True)
            (r_net): Linear(in_features=960, out_features=512, bias=False)
          )
          (pos_ff): PositionwiseFF(
            (CoreNet): Sequential(
              (0): Linear(in_features=960, out_features=4032, bias=True)
              (1): ReLU(inplace=True)
              (2): Dropout(p=0.1, inplace=False)
              (3): Linear(in_features=4032, out_features=960, bias=True)
              (4): Dropout(p=0.1, inplace=False)
            )
            (layer_norm): LayerNorm((960,), eps=1e-05, elementwise_affine=True)
          )
        )
        (4): RelPartialLearnableDecoderLayer(
          (dec_attn): RelPartialLearnableMultiHeadAttn(
            (qkv_net): Linear(in_features=960, out_features=1536, bias=False)
            (drop): Dropout(p=0.1, inplace=False)
            (dropatt): Dropout(p=0.0, inplace=False)
            (o_net): Linear(in_features=512, out_features=960, bias=False)
            (layer_norm): LayerNorm((960,), eps=1e-05, elementwise_affine=True)
            (r_net): Linear(in_features=960, out_features=512, bias=False)
          )
          (pos_ff): PositionwiseFF(
            (CoreNet): Sequential(
              (0): Linear(in_features=960, out_features=4032, bias=True)
              (1): ReLU(inplace=True)
              (2): Dropout(p=0.1, inplace=False)
              (3): Linear(in_features=4032, out_features=960, bias=True)
              (4): Dropout(p=0.1, inplace=False)
            )
            (layer_norm): LayerNorm((960,), eps=1e-05, elementwise_affine=True)
          )
        )
        (5): RelPartialLearnableDecoderLayer(
          (dec_attn): RelPartialLearnableMultiHeadAttn(
            (qkv_net): Linear(in_features=960, out_features=1536, bias=False)
            (drop): Dropout(p=0.1, inplace=False)
            (dropatt): Dropout(p=0.0, inplace=False)
            (o_net): Linear(in_features=512, out_features=960, bias=False)
            (layer_norm): LayerNorm((960,), eps=1e-05, elementwise_affine=True)
            (r_net): Linear(in_features=960, out_features=512, bias=False)
          )
          (pos_ff): PositionwiseFF(
            (CoreNet): Sequential(
              (0): Linear(in_features=960, out_features=4032, bias=True)
              (1): ReLU(inplace=True)
              (2): Dropout(p=0.1, inplace=False)
              (3): Linear(in_features=4032, out_features=960, bias=True)
              (4): Dropout(p=0.1, inplace=False)
            )
            (layer_norm): LayerNorm((960,), eps=1e-05, elementwise_affine=True)
          )
        )
        (6): RelPartialLearnableDecoderLayer(
          (dec_attn): RelPartialLearnableMultiHeadAttn(
            (qkv_net): Linear(in_features=960, out_features=1536, bias=False)
            (drop): Dropout(p=0.1, inplace=False)
            (dropatt): Dropout(p=0.0, inplace=False)
            (o_net): Linear(in_features=512, out_features=960, bias=False)
            (layer_norm): LayerNorm((960,), eps=1e-05, elementwise_affine=True)
            (r_net): Linear(in_features=960, out_features=512, bias=False)
          )
          (pos_ff): PositionwiseFF(
            (CoreNet): Sequential(
              (0): Linear(in_features=960, out_features=4032, bias=True)
              (1): ReLU(inplace=True)
              (2): Dropout(p=0.1, inplace=False)
              (3): Linear(in_features=4032, out_features=960, bias=True)
              (4): Dropout(p=0.1, inplace=False)
            )
            (layer_norm): LayerNorm((960,), eps=1e-05, elementwise_affine=True)
          )
        )
        (7): RelPartialLearnableDecoderLayer(
          (dec_attn): RelPartialLearnableMultiHeadAttn(
            (qkv_net): Linear(in_features=960, out_features=1536, bias=False)
            (drop): Dropout(p=0.1, inplace=False)
            (dropatt): Dropout(p=0.0, inplace=False)
            (o_net): Linear(in_features=512, out_features=960, bias=False)
            (layer_norm): LayerNorm((960,), eps=1e-05, elementwise_affine=True)
            (r_net): Linear(in_features=960, out_features=512, bias=False)
          )
          (pos_ff): PositionwiseFF(
            (CoreNet): Sequential(
              (0): Linear(in_features=960, out_features=4032, bias=True)
              (1): ReLU(inplace=True)
              (2): Dropout(p=0.1, inplace=False)
              (3): Linear(in_features=4032, out_features=960, bias=True)
              (4): Dropout(p=0.1, inplace=False)
            )
            (layer_norm): LayerNorm((960,), eps=1e-05, elementwise_affine=True)
          )
        )
        (8): RelPartialLearnableDecoderLayer(
          (dec_attn): RelPartialLearnableMultiHeadAttn(
            (qkv_net): Linear(in_features=960, out_features=1536, bias=False)
            (drop): Dropout(p=0.1, inplace=False)
            (dropatt): Dropout(p=0.0, inplace=False)
            (o_net): Linear(in_features=512, out_features=960, bias=False)
            (layer_norm): LayerNorm((960,), eps=1e-05, elementwise_affine=True)
            (r_net): Linear(in_features=960, out_features=512, bias=False)
          )
          (pos_ff): PositionwiseFF(
            (CoreNet): Sequential(
              (0): Linear(in_features=960, out_features=4032, bias=True)
              (1): ReLU(inplace=True)
              (2): Dropout(p=0.1, inplace=False)
              (3): Linear(in_features=4032, out_features=960, bias=True)
              (4): Dropout(p=0.1, inplace=False)
            )
            (layer_norm): LayerNorm((960,), eps=1e-05, elementwise_affine=True)
          )
        )
        (9): RelPartialLearnableDecoderLayer(
          (dec_attn): RelPartialLearnableMultiHeadAttn(
            (qkv_net): Linear(in_features=960, out_features=1536, bias=False)
            (drop): Dropout(p=0.1, inplace=False)
            (dropatt): Dropout(p=0.0, inplace=False)
            (o_net): Linear(in_features=512, out_features=960, bias=False)
            (layer_norm): LayerNorm((960,), eps=1e-05, elementwise_affine=True)
            (r_net): Linear(in_features=960, out_features=512, bias=False)
          )
          (pos_ff): PositionwiseFF(
            (CoreNet): Sequential(
              (0): Linear(in_features=960, out_features=4032, bias=True)
              (1): ReLU(inplace=True)
              (2): Dropout(p=0.1, inplace=False)
              (3): Linear(in_features=4032, out_features=960, bias=True)
              (4): Dropout(p=0.1, inplace=False)
            )
            (layer_norm): LayerNorm((960,), eps=1e-05, elementwise_affine=True)
          )
        )
      )
      (pos_emb): PositionalEmbedding()
    )
    (crit): ProjectedAdaptiveLogSoftmax(
      (out_layers): ModuleList(
        (0): Linear(in_features=512, out_features=19997, bias=True)
        (1): Linear(in_features=128, out_features=20000, bias=True)
        (2): Linear(in_features=32, out_features=160000, bias=True)
        (3): Linear(in_features=8, out_features=67739, bias=True)
      )
      (out_projs): ParameterList(
          (0): Parameter containing: [torch.float32 of size 960x512]
          (1): Parameter containing: [torch.float32 of size 960x128]
          (2): Parameter containing: [torch.float32 of size 960x32]
          (3): Parameter containing: [torch.float32 of size 960x8]
      )
    )
  )
)>
_is_full_backward_hook: None
_load_from_state_dict: <bound method Module._load_from_state_dict of HfTransfoXL(
  (model): TransfoXLLMHeadModel(
    (transformer): TransfoXLModel(
      (word_emb): AdaptiveEmbedding(
        (emb_layers): ModuleList(
          (0): Embedding(19997, 512)
          (1): Embedding(20000, 128)
          (2): Embedding(160000, 32)
          (3): Embedding(67739, 8)
        )
        (emb_projs): ParameterList(
            (0): Parameter containing: [torch.float32 of size 960x512]
            (1): Parameter containing: [torch.float32 of size 960x128]
            (2): Parameter containing: [torch.float32 of size 960x32]
            (3): Parameter containing: [torch.float32 of size 960x8]
        )
      )
      (drop): Dropout(p=0.1, inplace=False)
      (layers): ModuleList(
        (0): RelPartialLearnableDecoderLayer(
          (dec_attn): RelPartialLearnableMultiHeadAttn(
            (qkv_net): Linear(in_features=960, out_features=1536, bias=False)
            (drop): Dropout(p=0.1, inplace=False)
            (dropatt): Dropout(p=0.0, inplace=False)
            (o_net): Linear(in_features=512, out_features=960, bias=False)
            (layer_norm): LayerNorm((960,), eps=1e-05, elementwise_affine=True)
            (r_net): Linear(in_features=960, out_features=512, bias=False)
          )
          (pos_ff): PositionwiseFF(
            (CoreNet): Sequential(
              (0): Linear(in_features=960, out_features=4032, bias=True)
              (1): ReLU(inplace=True)
              (2): Dropout(p=0.1, inplace=False)
              (3): Linear(in_features=4032, out_features=960, bias=True)
              (4): Dropout(p=0.1, inplace=False)
            )
            (layer_norm): LayerNorm((960,), eps=1e-05, elementwise_affine=True)
          )
        )
        (1): RelPartialLearnableDecoderLayer(
          (dec_attn): RelPartialLearnableMultiHeadAttn(
            (qkv_net): Linear(in_features=960, out_features=1536, bias=False)
            (drop): Dropout(p=0.1, inplace=False)
            (dropatt): Dropout(p=0.0, inplace=False)
            (o_net): Linear(in_features=512, out_features=960, bias=False)
            (layer_norm): LayerNorm((960,), eps=1e-05, elementwise_affine=True)
            (r_net): Linear(in_features=960, out_features=512, bias=False)
          )
          (pos_ff): PositionwiseFF(
            (CoreNet): Sequential(
              (0): Linear(in_features=960, out_features=4032, bias=True)
              (1): ReLU(inplace=True)
              (2): Dropout(p=0.1, inplace=False)
              (3): Linear(in_features=4032, out_features=960, bias=True)
              (4): Dropout(p=0.1, inplace=False)
            )
            (layer_norm): LayerNorm((960,), eps=1e-05, elementwise_affine=True)
          )
        )
        (2): RelPartialLearnableDecoderLayer(
          (dec_attn): RelPartialLearnableMultiHeadAttn(
            (qkv_net): Linear(in_features=960, out_features=1536, bias=False)
            (drop): Dropout(p=0.1, inplace=False)
            (dropatt): Dropout(p=0.0, inplace=False)
            (o_net): Linear(in_features=512, out_features=960, bias=False)
            (layer_norm): LayerNorm((960,), eps=1e-05, elementwise_affine=True)
            (r_net): Linear(in_features=960, out_features=512, bias=False)
          )
          (pos_ff): PositionwiseFF(
            (CoreNet): Sequential(
              (0): Linear(in_features=960, out_features=4032, bias=True)
              (1): ReLU(inplace=True)
              (2): Dropout(p=0.1, inplace=False)
              (3): Linear(in_features=4032, out_features=960, bias=True)
              (4): Dropout(p=0.1, inplace=False)
            )
            (layer_norm): LayerNorm((960,), eps=1e-05, elementwise_affine=True)
          )
        )
        (3): RelPartialLearnableDecoderLayer(
          (dec_attn): RelPartialLearnableMultiHeadAttn(
            (qkv_net): Linear(in_features=960, out_features=1536, bias=False)
            (drop): Dropout(p=0.1, inplace=False)
            (dropatt): Dropout(p=0.0, inplace=False)
            (o_net): Linear(in_features=512, out_features=960, bias=False)
            (layer_norm): LayerNorm((960,), eps=1e-05, elementwise_affine=True)
            (r_net): Linear(in_features=960, out_features=512, bias=False)
          )
          (pos_ff): PositionwiseFF(
            (CoreNet): Sequential(
              (0): Linear(in_features=960, out_features=4032, bias=True)
              (1): ReLU(inplace=True)
              (2): Dropout(p=0.1, inplace=False)
              (3): Linear(in_features=4032, out_features=960, bias=True)
              (4): Dropout(p=0.1, inplace=False)
            )
            (layer_norm): LayerNorm((960,), eps=1e-05, elementwise_affine=True)
          )
        )
        (4): RelPartialLearnableDecoderLayer(
          (dec_attn): RelPartialLearnableMultiHeadAttn(
            (qkv_net): Linear(in_features=960, out_features=1536, bias=False)
            (drop): Dropout(p=0.1, inplace=False)
            (dropatt): Dropout(p=0.0, inplace=False)
            (o_net): Linear(in_features=512, out_features=960, bias=False)
            (layer_norm): LayerNorm((960,), eps=1e-05, elementwise_affine=True)
            (r_net): Linear(in_features=960, out_features=512, bias=False)
          )
          (pos_ff): PositionwiseFF(
            (CoreNet): Sequential(
              (0): Linear(in_features=960, out_features=4032, bias=True)
              (1): ReLU(inplace=True)
              (2): Dropout(p=0.1, inplace=False)
              (3): Linear(in_features=4032, out_features=960, bias=True)
              (4): Dropout(p=0.1, inplace=False)
            )
            (layer_norm): LayerNorm((960,), eps=1e-05, elementwise_affine=True)
          )
        )
        (5): RelPartialLearnableDecoderLayer(
          (dec_attn): RelPartialLearnableMultiHeadAttn(
            (qkv_net): Linear(in_features=960, out_features=1536, bias=False)
            (drop): Dropout(p=0.1, inplace=False)
            (dropatt): Dropout(p=0.0, inplace=False)
            (o_net): Linear(in_features=512, out_features=960, bias=False)
            (layer_norm): LayerNorm((960,), eps=1e-05, elementwise_affine=True)
            (r_net): Linear(in_features=960, out_features=512, bias=False)
          )
          (pos_ff): PositionwiseFF(
            (CoreNet): Sequential(
              (0): Linear(in_features=960, out_features=4032, bias=True)
              (1): ReLU(inplace=True)
              (2): Dropout(p=0.1, inplace=False)
              (3): Linear(in_features=4032, out_features=960, bias=True)
              (4): Dropout(p=0.1, inplace=False)
            )
            (layer_norm): LayerNorm((960,), eps=1e-05, elementwise_affine=True)
          )
        )
        (6): RelPartialLearnableDecoderLayer(
          (dec_attn): RelPartialLearnableMultiHeadAttn(
            (qkv_net): Linear(in_features=960, out_features=1536, bias=False)
            (drop): Dropout(p=0.1, inplace=False)
            (dropatt): Dropout(p=0.0, inplace=False)
            (o_net): Linear(in_features=512, out_features=960, bias=False)
            (layer_norm): LayerNorm((960,), eps=1e-05, elementwise_affine=True)
            (r_net): Linear(in_features=960, out_features=512, bias=False)
          )
          (pos_ff): PositionwiseFF(
            (CoreNet): Sequential(
              (0): Linear(in_features=960, out_features=4032, bias=True)
              (1): ReLU(inplace=True)
              (2): Dropout(p=0.1, inplace=False)
              (3): Linear(in_features=4032, out_features=960, bias=True)
              (4): Dropout(p=0.1, inplace=False)
            )
            (layer_norm): LayerNorm((960,), eps=1e-05, elementwise_affine=True)
          )
        )
        (7): RelPartialLearnableDecoderLayer(
          (dec_attn): RelPartialLearnableMultiHeadAttn(
            (qkv_net): Linear(in_features=960, out_features=1536, bias=False)
            (drop): Dropout(p=0.1, inplace=False)
            (dropatt): Dropout(p=0.0, inplace=False)
            (o_net): Linear(in_features=512, out_features=960, bias=False)
            (layer_norm): LayerNorm((960,), eps=1e-05, elementwise_affine=True)
            (r_net): Linear(in_features=960, out_features=512, bias=False)
          )
          (pos_ff): PositionwiseFF(
            (CoreNet): Sequential(
              (0): Linear(in_features=960, out_features=4032, bias=True)
              (1): ReLU(inplace=True)
              (2): Dropout(p=0.1, inplace=False)
              (3): Linear(in_features=4032, out_features=960, bias=True)
              (4): Dropout(p=0.1, inplace=False)
            )
            (layer_norm): LayerNorm((960,), eps=1e-05, elementwise_affine=True)
          )
        )
        (8): RelPartialLearnableDecoderLayer(
          (dec_attn): RelPartialLearnableMultiHeadAttn(
            (qkv_net): Linear(in_features=960, out_features=1536, bias=False)
            (drop): Dropout(p=0.1, inplace=False)
            (dropatt): Dropout(p=0.0, inplace=False)
            (o_net): Linear(in_features=512, out_features=960, bias=False)
            (layer_norm): LayerNorm((960,), eps=1e-05, elementwise_affine=True)
            (r_net): Linear(in_features=960, out_features=512, bias=False)
          )
          (pos_ff): PositionwiseFF(
            (CoreNet): Sequential(
              (0): Linear(in_features=960, out_features=4032, bias=True)
              (1): ReLU(inplace=True)
              (2): Dropout(p=0.1, inplace=False)
              (3): Linear(in_features=4032, out_features=960, bias=True)
              (4): Dropout(p=0.1, inplace=False)
            )
            (layer_norm): LayerNorm((960,), eps=1e-05, elementwise_affine=True)
          )
        )
        (9): RelPartialLearnableDecoderLayer(
          (dec_attn): RelPartialLearnableMultiHeadAttn(
            (qkv_net): Linear(in_features=960, out_features=1536, bias=False)
            (drop): Dropout(p=0.1, inplace=False)
            (dropatt): Dropout(p=0.0, inplace=False)
            (o_net): Linear(in_features=512, out_features=960, bias=False)
            (layer_norm): LayerNorm((960,), eps=1e-05, elementwise_affine=True)
            (r_net): Linear(in_features=960, out_features=512, bias=False)
          )
          (pos_ff): PositionwiseFF(
            (CoreNet): Sequential(
              (0): Linear(in_features=960, out_features=4032, bias=True)
              (1): ReLU(inplace=True)
              (2): Dropout(p=0.1, inplace=False)
              (3): Linear(in_features=4032, out_features=960, bias=True)
              (4): Dropout(p=0.1, inplace=False)
            )
            (layer_norm): LayerNorm((960,), eps=1e-05, elementwise_affine=True)
          )
        )
      )
      (pos_emb): PositionalEmbedding()
    )
    (crit): ProjectedAdaptiveLogSoftmax(
      (out_layers): ModuleList(
        (0): Linear(in_features=512, out_features=19997, bias=True)
        (1): Linear(in_features=128, out_features=20000, bias=True)
        (2): Linear(in_features=32, out_features=160000, bias=True)
        (3): Linear(in_features=8, out_features=67739, bias=True)
      )
      (out_projs): ParameterList(
          (0): Parameter containing: [torch.float32 of size 960x512]
          (1): Parameter containing: [torch.float32 of size 960x128]
          (2): Parameter containing: [torch.float32 of size 960x32]
          (3): Parameter containing: [torch.float32 of size 960x8]
      )
    )
  )
)>
_load_state_dict_post_hooks: OrderedDict([])
_load_state_dict_pre_hooks: OrderedDict([])
_maybe_warn_non_full_backward_hook: <bound method Module._maybe_warn_non_full_backward_hook of HfTransfoXL(
  (model): TransfoXLLMHeadModel(
    (transformer): TransfoXLModel(
      (word_emb): AdaptiveEmbedding(
        (emb_layers): ModuleList(
          (0): Embedding(19997, 512)
          (1): Embedding(20000, 128)
          (2): Embedding(160000, 32)
          (3): Embedding(67739, 8)
        )
        (emb_projs): ParameterList(
            (0): Parameter containing: [torch.float32 of size 960x512]
            (1): Parameter containing: [torch.float32 of size 960x128]
            (2): Parameter containing: [torch.float32 of size 960x32]
            (3): Parameter containing: [torch.float32 of size 960x8]
        )
      )
      (drop): Dropout(p=0.1, inplace=False)
      (layers): ModuleList(
        (0): RelPartialLearnableDecoderLayer(
          (dec_attn): RelPartialLearnableMultiHeadAttn(
            (qkv_net): Linear(in_features=960, out_features=1536, bias=False)
            (drop): Dropout(p=0.1, inplace=False)
            (dropatt): Dropout(p=0.0, inplace=False)
            (o_net): Linear(in_features=512, out_features=960, bias=False)
            (layer_norm): LayerNorm((960,), eps=1e-05, elementwise_affine=True)
            (r_net): Linear(in_features=960, out_features=512, bias=False)
          )
          (pos_ff): PositionwiseFF(
            (CoreNet): Sequential(
              (0): Linear(in_features=960, out_features=4032, bias=True)
              (1): ReLU(inplace=True)
              (2): Dropout(p=0.1, inplace=False)
              (3): Linear(in_features=4032, out_features=960, bias=True)
              (4): Dropout(p=0.1, inplace=False)
            )
            (layer_norm): LayerNorm((960,), eps=1e-05, elementwise_affine=True)
          )
        )
        (1): RelPartialLearnableDecoderLayer(
          (dec_attn): RelPartialLearnableMultiHeadAttn(
            (qkv_net): Linear(in_features=960, out_features=1536, bias=False)
            (drop): Dropout(p=0.1, inplace=False)
            (dropatt): Dropout(p=0.0, inplace=False)
            (o_net): Linear(in_features=512, out_features=960, bias=False)
            (layer_norm): LayerNorm((960,), eps=1e-05, elementwise_affine=True)
            (r_net): Linear(in_features=960, out_features=512, bias=False)
          )
          (pos_ff): PositionwiseFF(
            (CoreNet): Sequential(
              (0): Linear(in_features=960, out_features=4032, bias=True)
              (1): ReLU(inplace=True)
              (2): Dropout(p=0.1, inplace=False)
              (3): Linear(in_features=4032, out_features=960, bias=True)
              (4): Dropout(p=0.1, inplace=False)
            )
            (layer_norm): LayerNorm((960,), eps=1e-05, elementwise_affine=True)
          )
        )
        (2): RelPartialLearnableDecoderLayer(
          (dec_attn): RelPartialLearnableMultiHeadAttn(
            (qkv_net): Linear(in_features=960, out_features=1536, bias=False)
            (drop): Dropout(p=0.1, inplace=False)
            (dropatt): Dropout(p=0.0, inplace=False)
            (o_net): Linear(in_features=512, out_features=960, bias=False)
            (layer_norm): LayerNorm((960,), eps=1e-05, elementwise_affine=True)
            (r_net): Linear(in_features=960, out_features=512, bias=False)
          )
          (pos_ff): PositionwiseFF(
            (CoreNet): Sequential(
              (0): Linear(in_features=960, out_features=4032, bias=True)
              (1): ReLU(inplace=True)
              (2): Dropout(p=0.1, inplace=False)
              (3): Linear(in_features=4032, out_features=960, bias=True)
              (4): Dropout(p=0.1, inplace=False)
            )
            (layer_norm): LayerNorm((960,), eps=1e-05, elementwise_affine=True)
          )
        )
        (3): RelPartialLearnableDecoderLayer(
          (dec_attn): RelPartialLearnableMultiHeadAttn(
            (qkv_net): Linear(in_features=960, out_features=1536, bias=False)
            (drop): Dropout(p=0.1, inplace=False)
            (dropatt): Dropout(p=0.0, inplace=False)
            (o_net): Linear(in_features=512, out_features=960, bias=False)
            (layer_norm): LayerNorm((960,), eps=1e-05, elementwise_affine=True)
            (r_net): Linear(in_features=960, out_features=512, bias=False)
          )
          (pos_ff): PositionwiseFF(
            (CoreNet): Sequential(
              (0): Linear(in_features=960, out_features=4032, bias=True)
              (1): ReLU(inplace=True)
              (2): Dropout(p=0.1, inplace=False)
              (3): Linear(in_features=4032, out_features=960, bias=True)
              (4): Dropout(p=0.1, inplace=False)
            )
            (layer_norm): LayerNorm((960,), eps=1e-05, elementwise_affine=True)
          )
        )
        (4): RelPartialLearnableDecoderLayer(
          (dec_attn): RelPartialLearnableMultiHeadAttn(
            (qkv_net): Linear(in_features=960, out_features=1536, bias=False)
            (drop): Dropout(p=0.1, inplace=False)
            (dropatt): Dropout(p=0.0, inplace=False)
            (o_net): Linear(in_features=512, out_features=960, bias=False)
            (layer_norm): LayerNorm((960,), eps=1e-05, elementwise_affine=True)
            (r_net): Linear(in_features=960, out_features=512, bias=False)
          )
          (pos_ff): PositionwiseFF(
            (CoreNet): Sequential(
              (0): Linear(in_features=960, out_features=4032, bias=True)
              (1): ReLU(inplace=True)
              (2): Dropout(p=0.1, inplace=False)
              (3): Linear(in_features=4032, out_features=960, bias=True)
              (4): Dropout(p=0.1, inplace=False)
            )
            (layer_norm): LayerNorm((960,), eps=1e-05, elementwise_affine=True)
          )
        )
        (5): RelPartialLearnableDecoderLayer(
          (dec_attn): RelPartialLearnableMultiHeadAttn(
            (qkv_net): Linear(in_features=960, out_features=1536, bias=False)
            (drop): Dropout(p=0.1, inplace=False)
            (dropatt): Dropout(p=0.0, inplace=False)
            (o_net): Linear(in_features=512, out_features=960, bias=False)
            (layer_norm): LayerNorm((960,), eps=1e-05, elementwise_affine=True)
            (r_net): Linear(in_features=960, out_features=512, bias=False)
          )
          (pos_ff): PositionwiseFF(
            (CoreNet): Sequential(
              (0): Linear(in_features=960, out_features=4032, bias=True)
              (1): ReLU(inplace=True)
              (2): Dropout(p=0.1, inplace=False)
              (3): Linear(in_features=4032, out_features=960, bias=True)
              (4): Dropout(p=0.1, inplace=False)
            )
            (layer_norm): LayerNorm((960,), eps=1e-05, elementwise_affine=True)
          )
        )
        (6): RelPartialLearnableDecoderLayer(
          (dec_attn): RelPartialLearnableMultiHeadAttn(
            (qkv_net): Linear(in_features=960, out_features=1536, bias=False)
            (drop): Dropout(p=0.1, inplace=False)
            (dropatt): Dropout(p=0.0, inplace=False)
            (o_net): Linear(in_features=512, out_features=960, bias=False)
            (layer_norm): LayerNorm((960,), eps=1e-05, elementwise_affine=True)
            (r_net): Linear(in_features=960, out_features=512, bias=False)
          )
          (pos_ff): PositionwiseFF(
            (CoreNet): Sequential(
              (0): Linear(in_features=960, out_features=4032, bias=True)
              (1): ReLU(inplace=True)
              (2): Dropout(p=0.1, inplace=False)
              (3): Linear(in_features=4032, out_features=960, bias=True)
              (4): Dropout(p=0.1, inplace=False)
            )
            (layer_norm): LayerNorm((960,), eps=1e-05, elementwise_affine=True)
          )
        )
        (7): RelPartialLearnableDecoderLayer(
          (dec_attn): RelPartialLearnableMultiHeadAttn(
            (qkv_net): Linear(in_features=960, out_features=1536, bias=False)
            (drop): Dropout(p=0.1, inplace=False)
            (dropatt): Dropout(p=0.0, inplace=False)
            (o_net): Linear(in_features=512, out_features=960, bias=False)
            (layer_norm): LayerNorm((960,), eps=1e-05, elementwise_affine=True)
            (r_net): Linear(in_features=960, out_features=512, bias=False)
          )
          (pos_ff): PositionwiseFF(
            (CoreNet): Sequential(
              (0): Linear(in_features=960, out_features=4032, bias=True)
              (1): ReLU(inplace=True)
              (2): Dropout(p=0.1, inplace=False)
              (3): Linear(in_features=4032, out_features=960, bias=True)
              (4): Dropout(p=0.1, inplace=False)
            )
            (layer_norm): LayerNorm((960,), eps=1e-05, elementwise_affine=True)
          )
        )
        (8): RelPartialLearnableDecoderLayer(
          (dec_attn): RelPartialLearnableMultiHeadAttn(
            (qkv_net): Linear(in_features=960, out_features=1536, bias=False)
            (drop): Dropout(p=0.1, inplace=False)
            (dropatt): Dropout(p=0.0, inplace=False)
            (o_net): Linear(in_features=512, out_features=960, bias=False)
            (layer_norm): LayerNorm((960,), eps=1e-05, elementwise_affine=True)
            (r_net): Linear(in_features=960, out_features=512, bias=False)
          )
          (pos_ff): PositionwiseFF(
            (CoreNet): Sequential(
              (0): Linear(in_features=960, out_features=4032, bias=True)
              (1): ReLU(inplace=True)
              (2): Dropout(p=0.1, inplace=False)
              (3): Linear(in_features=4032, out_features=960, bias=True)
              (4): Dropout(p=0.1, inplace=False)
            )
            (layer_norm): LayerNorm((960,), eps=1e-05, elementwise_affine=True)
          )
        )
        (9): RelPartialLearnableDecoderLayer(
          (dec_attn): RelPartialLearnableMultiHeadAttn(
            (qkv_net): Linear(in_features=960, out_features=1536, bias=False)
            (drop): Dropout(p=0.1, inplace=False)
            (dropatt): Dropout(p=0.0, inplace=False)
            (o_net): Linear(in_features=512, out_features=960, bias=False)
            (layer_norm): LayerNorm((960,), eps=1e-05, elementwise_affine=True)
            (r_net): Linear(in_features=960, out_features=512, bias=False)
          )
          (pos_ff): PositionwiseFF(
            (CoreNet): Sequential(
              (0): Linear(in_features=960, out_features=4032, bias=True)
              (1): ReLU(inplace=True)
              (2): Dropout(p=0.1, inplace=False)
              (3): Linear(in_features=4032, out_features=960, bias=True)
              (4): Dropout(p=0.1, inplace=False)
            )
            (layer_norm): LayerNorm((960,), eps=1e-05, elementwise_affine=True)
          )
        )
      )
      (pos_emb): PositionalEmbedding()
    )
    (crit): ProjectedAdaptiveLogSoftmax(
      (out_layers): ModuleList(
        (0): Linear(in_features=512, out_features=19997, bias=True)
        (1): Linear(in_features=128, out_features=20000, bias=True)
        (2): Linear(in_features=32, out_features=160000, bias=True)
        (3): Linear(in_features=8, out_features=67739, bias=True)
      )
      (out_projs): ParameterList(
          (0): Parameter containing: [torch.float32 of size 960x512]
          (1): Parameter containing: [torch.float32 of size 960x128]
          (2): Parameter containing: [torch.float32 of size 960x32]
          (3): Parameter containing: [torch.float32 of size 960x8]
      )
    )
  )
)>
_modules: OrderedDict([('model', TransfoXLLMHeadModel...   )
  )
))])
_named_members: <bound method Module._named_members of HfTransfoXL(
  (model): TransfoXLLMHeadModel(
    (transformer): TransfoXLModel(
      (word_emb): AdaptiveEmbedding(
        (emb_layers): ModuleList(
          (0): Embedding(19997, 512)
          (1): Embedding(20000, 128)
          (2): Embedding(160000, 32)
          (3): Embedding(67739, 8)
        )
        (emb_projs): ParameterList(
            (0): Parameter containing: [torch.float32 of size 960x512]
            (1): Parameter containing: [torch.float32 of size 960x128]
            (2): Parameter containing: [torch.float32 of size 960x32]
            (3): Parameter containing: [torch.float32 of size 960x8]
        )
      )
      (drop): Dropout(p=0.1, inplace=False)
      (layers): ModuleList(
        (0): RelPartialLearnableDecoderLayer(
          (dec_attn): RelPartialLearnableMultiHeadAttn(
            (qkv_net): Linear(in_features=960, out_features=1536, bias=False)
            (drop): Dropout(p=0.1, inplace=False)
            (dropatt): Dropout(p=0.0, inplace=False)
            (o_net): Linear(in_features=512, out_features=960, bias=False)
            (layer_norm): LayerNorm((960,), eps=1e-05, elementwise_affine=True)
            (r_net): Linear(in_features=960, out_features=512, bias=False)
          )
          (pos_ff): PositionwiseFF(
            (CoreNet): Sequential(
              (0): Linear(in_features=960, out_features=4032, bias=True)
              (1): ReLU(inplace=True)
              (2): Dropout(p=0.1, inplace=False)
              (3): Linear(in_features=4032, out_features=960, bias=True)
              (4): Dropout(p=0.1, inplace=False)
            )
            (layer_norm): LayerNorm((960,), eps=1e-05, elementwise_affine=True)
          )
        )
        (1): RelPartialLearnableDecoderLayer(
          (dec_attn): RelPartialLearnableMultiHeadAttn(
            (qkv_net): Linear(in_features=960, out_features=1536, bias=False)
            (drop): Dropout(p=0.1, inplace=False)
            (dropatt): Dropout(p=0.0, inplace=False)
            (o_net): Linear(in_features=512, out_features=960, bias=False)
            (layer_norm): LayerNorm((960,), eps=1e-05, elementwise_affine=True)
            (r_net): Linear(in_features=960, out_features=512, bias=False)
          )
          (pos_ff): PositionwiseFF(
            (CoreNet): Sequential(
              (0): Linear(in_features=960, out_features=4032, bias=True)
              (1): ReLU(inplace=True)
              (2): Dropout(p=0.1, inplace=False)
              (3): Linear(in_features=4032, out_features=960, bias=True)
              (4): Dropout(p=0.1, inplace=False)
            )
            (layer_norm): LayerNorm((960,), eps=1e-05, elementwise_affine=True)
          )
        )
        (2): RelPartialLearnableDecoderLayer(
          (dec_attn): RelPartialLearnableMultiHeadAttn(
            (qkv_net): Linear(in_features=960, out_features=1536, bias=False)
            (drop): Dropout(p=0.1, inplace=False)
            (dropatt): Dropout(p=0.0, inplace=False)
            (o_net): Linear(in_features=512, out_features=960, bias=False)
            (layer_norm): LayerNorm((960,), eps=1e-05, elementwise_affine=True)
            (r_net): Linear(in_features=960, out_features=512, bias=False)
          )
          (pos_ff): PositionwiseFF(
            (CoreNet): Sequential(
              (0): Linear(in_features=960, out_features=4032, bias=True)
              (1): ReLU(inplace=True)
              (2): Dropout(p=0.1, inplace=False)
              (3): Linear(in_features=4032, out_features=960, bias=True)
              (4): Dropout(p=0.1, inplace=False)
            )
            (layer_norm): LayerNorm((960,), eps=1e-05, elementwise_affine=True)
          )
        )
        (3): RelPartialLearnableDecoderLayer(
          (dec_attn): RelPartialLearnableMultiHeadAttn(
            (qkv_net): Linear(in_features=960, out_features=1536, bias=False)
            (drop): Dropout(p=0.1, inplace=False)
            (dropatt): Dropout(p=0.0, inplace=False)
            (o_net): Linear(in_features=512, out_features=960, bias=False)
            (layer_norm): LayerNorm((960,), eps=1e-05, elementwise_affine=True)
            (r_net): Linear(in_features=960, out_features=512, bias=False)
          )
          (pos_ff): PositionwiseFF(
            (CoreNet): Sequential(
              (0): Linear(in_features=960, out_features=4032, bias=True)
              (1): ReLU(inplace=True)
              (2): Dropout(p=0.1, inplace=False)
              (3): Linear(in_features=4032, out_features=960, bias=True)
              (4): Dropout(p=0.1, inplace=False)
            )
            (layer_norm): LayerNorm((960,), eps=1e-05, elementwise_affine=True)
          )
        )
        (4): RelPartialLearnableDecoderLayer(
          (dec_attn): RelPartialLearnableMultiHeadAttn(
            (qkv_net): Linear(in_features=960, out_features=1536, bias=False)
            (drop): Dropout(p=0.1, inplace=False)
            (dropatt): Dropout(p=0.0, inplace=False)
            (o_net): Linear(in_features=512, out_features=960, bias=False)
            (layer_norm): LayerNorm((960,), eps=1e-05, elementwise_affine=True)
            (r_net): Linear(in_features=960, out_features=512, bias=False)
          )
          (pos_ff): PositionwiseFF(
            (CoreNet): Sequential(
              (0): Linear(in_features=960, out_features=4032, bias=True)
              (1): ReLU(inplace=True)
              (2): Dropout(p=0.1, inplace=False)
              (3): Linear(in_features=4032, out_features=960, bias=True)
              (4): Dropout(p=0.1, inplace=False)
            )
            (layer_norm): LayerNorm((960,), eps=1e-05, elementwise_affine=True)
          )
        )
        (5): RelPartialLearnableDecoderLayer(
          (dec_attn): RelPartialLearnableMultiHeadAttn(
            (qkv_net): Linear(in_features=960, out_features=1536, bias=False)
            (drop): Dropout(p=0.1, inplace=False)
            (dropatt): Dropout(p=0.0, inplace=False)
            (o_net): Linear(in_features=512, out_features=960, bias=False)
            (layer_norm): LayerNorm((960,), eps=1e-05, elementwise_affine=True)
            (r_net): Linear(in_features=960, out_features=512, bias=False)
          )
          (pos_ff): PositionwiseFF(
            (CoreNet): Sequential(
              (0): Linear(in_features=960, out_features=4032, bias=True)
              (1): ReLU(inplace=True)
              (2): Dropout(p=0.1, inplace=False)
              (3): Linear(in_features=4032, out_features=960, bias=True)
              (4): Dropout(p=0.1, inplace=False)
            )
            (layer_norm): LayerNorm((960,), eps=1e-05, elementwise_affine=True)
          )
        )
        (6): RelPartialLearnableDecoderLayer(
          (dec_attn): RelPartialLearnableMultiHeadAttn(
            (qkv_net): Linear(in_features=960, out_features=1536, bias=False)
            (drop): Dropout(p=0.1, inplace=False)
            (dropatt): Dropout(p=0.0, inplace=False)
            (o_net): Linear(in_features=512, out_features=960, bias=False)
            (layer_norm): LayerNorm((960,), eps=1e-05, elementwise_affine=True)
            (r_net): Linear(in_features=960, out_features=512, bias=False)
          )
          (pos_ff): PositionwiseFF(
            (CoreNet): Sequential(
              (0): Linear(in_features=960, out_features=4032, bias=True)
              (1): ReLU(inplace=True)
              (2): Dropout(p=0.1, inplace=False)
              (3): Linear(in_features=4032, out_features=960, bias=True)
              (4): Dropout(p=0.1, inplace=False)
            )
            (layer_norm): LayerNorm((960,), eps=1e-05, elementwise_affine=True)
          )
        )
        (7): RelPartialLearnableDecoderLayer(
          (dec_attn): RelPartialLearnableMultiHeadAttn(
            (qkv_net): Linear(in_features=960, out_features=1536, bias=False)
            (drop): Dropout(p=0.1, inplace=False)
            (dropatt): Dropout(p=0.0, inplace=False)
            (o_net): Linear(in_features=512, out_features=960, bias=False)
            (layer_norm): LayerNorm((960,), eps=1e-05, elementwise_affine=True)
            (r_net): Linear(in_features=960, out_features=512, bias=False)
          )
          (pos_ff): PositionwiseFF(
            (CoreNet): Sequential(
              (0): Linear(in_features=960, out_features=4032, bias=True)
              (1): ReLU(inplace=True)
              (2): Dropout(p=0.1, inplace=False)
              (3): Linear(in_features=4032, out_features=960, bias=True)
              (4): Dropout(p=0.1, inplace=False)
            )
            (layer_norm): LayerNorm((960,), eps=1e-05, elementwise_affine=True)
          )
        )
        (8): RelPartialLearnableDecoderLayer(
          (dec_attn): RelPartialLearnableMultiHeadAttn(
            (qkv_net): Linear(in_features=960, out_features=1536, bias=False)
            (drop): Dropout(p=0.1, inplace=False)
            (dropatt): Dropout(p=0.0, inplace=False)
            (o_net): Linear(in_features=512, out_features=960, bias=False)
            (layer_norm): LayerNorm((960,), eps=1e-05, elementwise_affine=True)
            (r_net): Linear(in_features=960, out_features=512, bias=False)
          )
          (pos_ff): PositionwiseFF(
            (CoreNet): Sequential(
              (0): Linear(in_features=960, out_features=4032, bias=True)
              (1): ReLU(inplace=True)
              (2): Dropout(p=0.1, inplace=False)
              (3): Linear(in_features=4032, out_features=960, bias=True)
              (4): Dropout(p=0.1, inplace=False)
            )
            (layer_norm): LayerNorm((960,), eps=1e-05, elementwise_affine=True)
          )
        )
        (9): RelPartialLearnableDecoderLayer(
          (dec_attn): RelPartialLearnableMultiHeadAttn(
            (qkv_net): Linear(in_features=960, out_features=1536, bias=False)
            (drop): Dropout(p=0.1, inplace=False)
            (dropatt): Dropout(p=0.0, inplace=False)
            (o_net): Linear(in_features=512, out_features=960, bias=False)
            (layer_norm): LayerNorm((960,), eps=1e-05, elementwise_affine=True)
            (r_net): Linear(in_features=960, out_features=512, bias=False)
          )
          (pos_ff): PositionwiseFF(
            (CoreNet): Sequential(
              (0): Linear(in_features=960, out_features=4032, bias=True)
              (1): ReLU(inplace=True)
              (2): Dropout(p=0.1, inplace=False)
              (3): Linear(in_features=4032, out_features=960, bias=True)
              (4): Dropout(p=0.1, inplace=False)
            )
            (layer_norm): LayerNorm((960,), eps=1e-05, elementwise_affine=True)
          )
        )
      )
      (pos_emb): PositionalEmbedding()
    )
    (crit): ProjectedAdaptiveLogSoftmax(
      (out_layers): ModuleList(
        (0): Linear(in_features=512, out_features=19997, bias=True)
        (1): Linear(in_features=128, out_features=20000, bias=True)
        (2): Linear(in_features=32, out_features=160000, bias=True)
        (3): Linear(in_features=8, out_features=67739, bias=True)
      )
      (out_projs): ParameterList(
          (0): Parameter containing: [torch.float32 of size 960x512]
          (1): Parameter containing: [torch.float32 of size 960x128]
          (2): Parameter containing: [torch.float32 of size 960x32]
          (3): Parameter containing: [torch.float32 of size 960x8]
      )
    )
  )
)>
_non_persistent_buffers_set: {}
_parameters: OrderedDict([])
_register_load_state_dict_pre_hook: <bound method Module._register_load_state_dict_pre_hook of HfTransfoXL(
  (model): TransfoXLLMHeadModel(
    (transformer): TransfoXLModel(
      (word_emb): AdaptiveEmbedding(
        (emb_layers): ModuleList(
          (0): Embedding(19997, 512)
          (1): Embedding(20000, 128)
          (2): Embedding(160000, 32)
          (3): Embedding(67739, 8)
        )
        (emb_projs): ParameterList(
            (0): Parameter containing: [torch.float32 of size 960x512]
            (1): Parameter containing: [torch.float32 of size 960x128]
            (2): Parameter containing: [torch.float32 of size 960x32]
            (3): Parameter containing: [torch.float32 of size 960x8]
        )
      )
      (drop): Dropout(p=0.1, inplace=False)
      (layers): ModuleList(
        (0): RelPartialLearnableDecoderLayer(
          (dec_attn): RelPartialLearnableMultiHeadAttn(
            (qkv_net): Linear(in_features=960, out_features=1536, bias=False)
            (drop): Dropout(p=0.1, inplace=False)
            (dropatt): Dropout(p=0.0, inplace=False)
            (o_net): Linear(in_features=512, out_features=960, bias=False)
            (layer_norm): LayerNorm((960,), eps=1e-05, elementwise_affine=True)
            (r_net): Linear(in_features=960, out_features=512, bias=False)
          )
          (pos_ff): PositionwiseFF(
            (CoreNet): Sequential(
              (0): Linear(in_features=960, out_features=4032, bias=True)
              (1): ReLU(inplace=True)
              (2): Dropout(p=0.1, inplace=False)
              (3): Linear(in_features=4032, out_features=960, bias=True)
              (4): Dropout(p=0.1, inplace=False)
            )
            (layer_norm): LayerNorm((960,), eps=1e-05, elementwise_affine=True)
          )
        )
        (1): RelPartialLearnableDecoderLayer(
          (dec_attn): RelPartialLearnableMultiHeadAttn(
            (qkv_net): Linear(in_features=960, out_features=1536, bias=False)
            (drop): Dropout(p=0.1, inplace=False)
            (dropatt): Dropout(p=0.0, inplace=False)
            (o_net): Linear(in_features=512, out_features=960, bias=False)
            (layer_norm): LayerNorm((960,), eps=1e-05, elementwise_affine=True)
            (r_net): Linear(in_features=960, out_features=512, bias=False)
          )
          (pos_ff): PositionwiseFF(
            (CoreNet): Sequential(
              (0): Linear(in_features=960, out_features=4032, bias=True)
              (1): ReLU(inplace=True)
              (2): Dropout(p=0.1, inplace=False)
              (3): Linear(in_features=4032, out_features=960, bias=True)
              (4): Dropout(p=0.1, inplace=False)
            )
            (layer_norm): LayerNorm((960,), eps=1e-05, elementwise_affine=True)
          )
        )
        (2): RelPartialLearnableDecoderLayer(
          (dec_attn): RelPartialLearnableMultiHeadAttn(
            (qkv_net): Linear(in_features=960, out_features=1536, bias=False)
            (drop): Dropout(p=0.1, inplace=False)
            (dropatt): Dropout(p=0.0, inplace=False)
            (o_net): Linear(in_features=512, out_features=960, bias=False)
            (layer_norm): LayerNorm((960,), eps=1e-05, elementwise_affine=True)
            (r_net): Linear(in_features=960, out_features=512, bias=False)
          )
          (pos_ff): PositionwiseFF(
            (CoreNet): Sequential(
              (0): Linear(in_features=960, out_features=4032, bias=True)
              (1): ReLU(inplace=True)
              (2): Dropout(p=0.1, inplace=False)
              (3): Linear(in_features=4032, out_features=960, bias=True)
              (4): Dropout(p=0.1, inplace=False)
            )
            (layer_norm): LayerNorm((960,), eps=1e-05, elementwise_affine=True)
          )
        )
        (3): RelPartialLearnableDecoderLayer(
          (dec_attn): RelPartialLearnableMultiHeadAttn(
            (qkv_net): Linear(in_features=960, out_features=1536, bias=False)
            (drop): Dropout(p=0.1, inplace=False)
            (dropatt): Dropout(p=0.0, inplace=False)
            (o_net): Linear(in_features=512, out_features=960, bias=False)
            (layer_norm): LayerNorm((960,), eps=1e-05, elementwise_affine=True)
            (r_net): Linear(in_features=960, out_features=512, bias=False)
          )
          (pos_ff): PositionwiseFF(
            (CoreNet): Sequential(
              (0): Linear(in_features=960, out_features=4032, bias=True)
              (1): ReLU(inplace=True)
              (2): Dropout(p=0.1, inplace=False)
              (3): Linear(in_features=4032, out_features=960, bias=True)
              (4): Dropout(p=0.1, inplace=False)
            )
            (layer_norm): LayerNorm((960,), eps=1e-05, elementwise_affine=True)
          )
        )
        (4): RelPartialLearnableDecoderLayer(
          (dec_attn): RelPartialLearnableMultiHeadAttn(
            (qkv_net): Linear(in_features=960, out_features=1536, bias=False)
            (drop): Dropout(p=0.1, inplace=False)
            (dropatt): Dropout(p=0.0, inplace=False)
            (o_net): Linear(in_features=512, out_features=960, bias=False)
            (layer_norm): LayerNorm((960,), eps=1e-05, elementwise_affine=True)
            (r_net): Linear(in_features=960, out_features=512, bias=False)
          )
          (pos_ff): PositionwiseFF(
            (CoreNet): Sequential(
              (0): Linear(in_features=960, out_features=4032, bias=True)
              (1): ReLU(inplace=True)
              (2): Dropout(p=0.1, inplace=False)
              (3): Linear(in_features=4032, out_features=960, bias=True)
              (4): Dropout(p=0.1, inplace=False)
            )
            (layer_norm): LayerNorm((960,), eps=1e-05, elementwise_affine=True)
          )
        )
        (5): RelPartialLearnableDecoderLayer(
          (dec_attn): RelPartialLearnableMultiHeadAttn(
            (qkv_net): Linear(in_features=960, out_features=1536, bias=False)
            (drop): Dropout(p=0.1, inplace=False)
            (dropatt): Dropout(p=0.0, inplace=False)
            (o_net): Linear(in_features=512, out_features=960, bias=False)
            (layer_norm): LayerNorm((960,), eps=1e-05, elementwise_affine=True)
            (r_net): Linear(in_features=960, out_features=512, bias=False)
          )
          (pos_ff): PositionwiseFF(
            (CoreNet): Sequential(
              (0): Linear(in_features=960, out_features=4032, bias=True)
              (1): ReLU(inplace=True)
              (2): Dropout(p=0.1, inplace=False)
              (3): Linear(in_features=4032, out_features=960, bias=True)
              (4): Dropout(p=0.1, inplace=False)
            )
            (layer_norm): LayerNorm((960,), eps=1e-05, elementwise_affine=True)
          )
        )
        (6): RelPartialLearnableDecoderLayer(
          (dec_attn): RelPartialLearnableMultiHeadAttn(
            (qkv_net): Linear(in_features=960, out_features=1536, bias=False)
            (drop): Dropout(p=0.1, inplace=False)
            (dropatt): Dropout(p=0.0, inplace=False)
            (o_net): Linear(in_features=512, out_features=960, bias=False)
            (layer_norm): LayerNorm((960,), eps=1e-05, elementwise_affine=True)
            (r_net): Linear(in_features=960, out_features=512, bias=False)
          )
          (pos_ff): PositionwiseFF(
            (CoreNet): Sequential(
              (0): Linear(in_features=960, out_features=4032, bias=True)
              (1): ReLU(inplace=True)
              (2): Dropout(p=0.1, inplace=False)
              (3): Linear(in_features=4032, out_features=960, bias=True)
              (4): Dropout(p=0.1, inplace=False)
            )
            (layer_norm): LayerNorm((960,), eps=1e-05, elementwise_affine=True)
          )
        )
        (7): RelPartialLearnableDecoderLayer(
          (dec_attn): RelPartialLearnableMultiHeadAttn(
            (qkv_net): Linear(in_features=960, out_features=1536, bias=False)
            (drop): Dropout(p=0.1, inplace=False)
            (dropatt): Dropout(p=0.0, inplace=False)
            (o_net): Linear(in_features=512, out_features=960, bias=False)
            (layer_norm): LayerNorm((960,), eps=1e-05, elementwise_affine=True)
            (r_net): Linear(in_features=960, out_features=512, bias=False)
          )
          (pos_ff): PositionwiseFF(
            (CoreNet): Sequential(
              (0): Linear(in_features=960, out_features=4032, bias=True)
              (1): ReLU(inplace=True)
              (2): Dropout(p=0.1, inplace=False)
              (3): Linear(in_features=4032, out_features=960, bias=True)
              (4): Dropout(p=0.1, inplace=False)
            )
            (layer_norm): LayerNorm((960,), eps=1e-05, elementwise_affine=True)
          )
        )
        (8): RelPartialLearnableDecoderLayer(
          (dec_attn): RelPartialLearnableMultiHeadAttn(
            (qkv_net): Linear(in_features=960, out_features=1536, bias=False)
            (drop): Dropout(p=0.1, inplace=False)
            (dropatt): Dropout(p=0.0, inplace=False)
            (o_net): Linear(in_features=512, out_features=960, bias=False)
            (layer_norm): LayerNorm((960,), eps=1e-05, elementwise_affine=True)
            (r_net): Linear(in_features=960, out_features=512, bias=False)
          )
          (pos_ff): PositionwiseFF(
            (CoreNet): Sequential(
              (0): Linear(in_features=960, out_features=4032, bias=True)
              (1): ReLU(inplace=True)
              (2): Dropout(p=0.1, inplace=False)
              (3): Linear(in_features=4032, out_features=960, bias=True)
              (4): Dropout(p=0.1, inplace=False)
            )
            (layer_norm): LayerNorm((960,), eps=1e-05, elementwise_affine=True)
          )
        )
        (9): RelPartialLearnableDecoderLayer(
          (dec_attn): RelPartialLearnableMultiHeadAttn(
            (qkv_net): Linear(in_features=960, out_features=1536, bias=False)
            (drop): Dropout(p=0.1, inplace=False)
            (dropatt): Dropout(p=0.0, inplace=False)
            (o_net): Linear(in_features=512, out_features=960, bias=False)
            (layer_norm): LayerNorm((960,), eps=1e-05, elementwise_affine=True)
            (r_net): Linear(in_features=960, out_features=512, bias=False)
          )
          (pos_ff): PositionwiseFF(
            (CoreNet): Sequential(
              (0): Linear(in_features=960, out_features=4032, bias=True)
              (1): ReLU(inplace=True)
              (2): Dropout(p=0.1, inplace=False)
              (3): Linear(in_features=4032, out_features=960, bias=True)
              (4): Dropout(p=0.1, inplace=False)
            )
            (layer_norm): LayerNorm((960,), eps=1e-05, elementwise_affine=True)
          )
        )
      )
      (pos_emb): PositionalEmbedding()
    )
    (crit): ProjectedAdaptiveLogSoftmax(
      (out_layers): ModuleList(
        (0): Linear(in_features=512, out_features=19997, bias=True)
        (1): Linear(in_features=128, out_features=20000, bias=True)
        (2): Linear(in_features=32, out_features=160000, bias=True)
        (3): Linear(in_features=8, out_features=67739, bias=True)
      )
      (out_projs): ParameterList(
          (0): Parameter containing: [torch.float32 of size 960x512]
          (1): Parameter containing: [torch.float32 of size 960x128]
          (2): Parameter containing: [torch.float32 of size 960x32]
          (3): Parameter containing: [torch.float32 of size 960x8]
      )
    )
  )
)>
_register_state_dict_hook: <bound method Module._register_state_dict_hook of HfTransfoXL(
  (model): TransfoXLLMHeadModel(
    (transformer): TransfoXLModel(
      (word_emb): AdaptiveEmbedding(
        (emb_layers): ModuleList(
          (0): Embedding(19997, 512)
          (1): Embedding(20000, 128)
          (2): Embedding(160000, 32)
          (3): Embedding(67739, 8)
        )
        (emb_projs): ParameterList(
            (0): Parameter containing: [torch.float32 of size 960x512]
            (1): Parameter containing: [torch.float32 of size 960x128]
            (2): Parameter containing: [torch.float32 of size 960x32]
            (3): Parameter containing: [torch.float32 of size 960x8]
        )
      )
      (drop): Dropout(p=0.1, inplace=False)
      (layers): ModuleList(
        (0): RelPartialLearnableDecoderLayer(
          (dec_attn): RelPartialLearnableMultiHeadAttn(
            (qkv_net): Linear(in_features=960, out_features=1536, bias=False)
            (drop): Dropout(p=0.1, inplace=False)
            (dropatt): Dropout(p=0.0, inplace=False)
            (o_net): Linear(in_features=512, out_features=960, bias=False)
            (layer_norm): LayerNorm((960,), eps=1e-05, elementwise_affine=True)
            (r_net): Linear(in_features=960, out_features=512, bias=False)
          )
          (pos_ff): PositionwiseFF(
            (CoreNet): Sequential(
              (0): Linear(in_features=960, out_features=4032, bias=True)
              (1): ReLU(inplace=True)
              (2): Dropout(p=0.1, inplace=False)
              (3): Linear(in_features=4032, out_features=960, bias=True)
              (4): Dropout(p=0.1, inplace=False)
            )
            (layer_norm): LayerNorm((960,), eps=1e-05, elementwise_affine=True)
          )
        )
        (1): RelPartialLearnableDecoderLayer(
          (dec_attn): RelPartialLearnableMultiHeadAttn(
            (qkv_net): Linear(in_features=960, out_features=1536, bias=False)
            (drop): Dropout(p=0.1, inplace=False)
            (dropatt): Dropout(p=0.0, inplace=False)
            (o_net): Linear(in_features=512, out_features=960, bias=False)
            (layer_norm): LayerNorm((960,), eps=1e-05, elementwise_affine=True)
            (r_net): Linear(in_features=960, out_features=512, bias=False)
          )
          (pos_ff): PositionwiseFF(
            (CoreNet): Sequential(
              (0): Linear(in_features=960, out_features=4032, bias=True)
              (1): ReLU(inplace=True)
              (2): Dropout(p=0.1, inplace=False)
              (3): Linear(in_features=4032, out_features=960, bias=True)
              (4): Dropout(p=0.1, inplace=False)
            )
            (layer_norm): LayerNorm((960,), eps=1e-05, elementwise_affine=True)
          )
        )
        (2): RelPartialLearnableDecoderLayer(
          (dec_attn): RelPartialLearnableMultiHeadAttn(
            (qkv_net): Linear(in_features=960, out_features=1536, bias=False)
            (drop): Dropout(p=0.1, inplace=False)
            (dropatt): Dropout(p=0.0, inplace=False)
            (o_net): Linear(in_features=512, out_features=960, bias=False)
            (layer_norm): LayerNorm((960,), eps=1e-05, elementwise_affine=True)
            (r_net): Linear(in_features=960, out_features=512, bias=False)
          )
          (pos_ff): PositionwiseFF(
            (CoreNet): Sequential(
              (0): Linear(in_features=960, out_features=4032, bias=True)
              (1): ReLU(inplace=True)
              (2): Dropout(p=0.1, inplace=False)
              (3): Linear(in_features=4032, out_features=960, bias=True)
              (4): Dropout(p=0.1, inplace=False)
            )
            (layer_norm): LayerNorm((960,), eps=1e-05, elementwise_affine=True)
          )
        )
        (3): RelPartialLearnableDecoderLayer(
          (dec_attn): RelPartialLearnableMultiHeadAttn(
            (qkv_net): Linear(in_features=960, out_features=1536, bias=False)
            (drop): Dropout(p=0.1, inplace=False)
            (dropatt): Dropout(p=0.0, inplace=False)
            (o_net): Linear(in_features=512, out_features=960, bias=False)
            (layer_norm): LayerNorm((960,), eps=1e-05, elementwise_affine=True)
            (r_net): Linear(in_features=960, out_features=512, bias=False)
          )
          (pos_ff): PositionwiseFF(
            (CoreNet): Sequential(
              (0): Linear(in_features=960, out_features=4032, bias=True)
              (1): ReLU(inplace=True)
              (2): Dropout(p=0.1, inplace=False)
              (3): Linear(in_features=4032, out_features=960, bias=True)
              (4): Dropout(p=0.1, inplace=False)
            )
            (layer_norm): LayerNorm((960,), eps=1e-05, elementwise_affine=True)
          )
        )
        (4): RelPartialLearnableDecoderLayer(
          (dec_attn): RelPartialLearnableMultiHeadAttn(
            (qkv_net): Linear(in_features=960, out_features=1536, bias=False)
            (drop): Dropout(p=0.1, inplace=False)
            (dropatt): Dropout(p=0.0, inplace=False)
            (o_net): Linear(in_features=512, out_features=960, bias=False)
            (layer_norm): LayerNorm((960,), eps=1e-05, elementwise_affine=True)
            (r_net): Linear(in_features=960, out_features=512, bias=False)
          )
          (pos_ff): PositionwiseFF(
            (CoreNet): Sequential(
              (0): Linear(in_features=960, out_features=4032, bias=True)
              (1): ReLU(inplace=True)
              (2): Dropout(p=0.1, inplace=False)
              (3): Linear(in_features=4032, out_features=960, bias=True)
              (4): Dropout(p=0.1, inplace=False)
            )
            (layer_norm): LayerNorm((960,), eps=1e-05, elementwise_affine=True)
          )
        )
        (5): RelPartialLearnableDecoderLayer(
          (dec_attn): RelPartialLearnableMultiHeadAttn(
            (qkv_net): Linear(in_features=960, out_features=1536, bias=False)
            (drop): Dropout(p=0.1, inplace=False)
            (dropatt): Dropout(p=0.0, inplace=False)
            (o_net): Linear(in_features=512, out_features=960, bias=False)
            (layer_norm): LayerNorm((960,), eps=1e-05, elementwise_affine=True)
            (r_net): Linear(in_features=960, out_features=512, bias=False)
          )
          (pos_ff): PositionwiseFF(
            (CoreNet): Sequential(
              (0): Linear(in_features=960, out_features=4032, bias=True)
              (1): ReLU(inplace=True)
              (2): Dropout(p=0.1, inplace=False)
              (3): Linear(in_features=4032, out_features=960, bias=True)
              (4): Dropout(p=0.1, inplace=False)
            )
            (layer_norm): LayerNorm((960,), eps=1e-05, elementwise_affine=True)
          )
        )
        (6): RelPartialLearnableDecoderLayer(
          (dec_attn): RelPartialLearnableMultiHeadAttn(
            (qkv_net): Linear(in_features=960, out_features=1536, bias=False)
            (drop): Dropout(p=0.1, inplace=False)
            (dropatt): Dropout(p=0.0, inplace=False)
            (o_net): Linear(in_features=512, out_features=960, bias=False)
            (layer_norm): LayerNorm((960,), eps=1e-05, elementwise_affine=True)
            (r_net): Linear(in_features=960, out_features=512, bias=False)
          )
          (pos_ff): PositionwiseFF(
            (CoreNet): Sequential(
              (0): Linear(in_features=960, out_features=4032, bias=True)
              (1): ReLU(inplace=True)
              (2): Dropout(p=0.1, inplace=False)
              (3): Linear(in_features=4032, out_features=960, bias=True)
              (4): Dropout(p=0.1, inplace=False)
            )
            (layer_norm): LayerNorm((960,), eps=1e-05, elementwise_affine=True)
          )
        )
        (7): RelPartialLearnableDecoderLayer(
          (dec_attn): RelPartialLearnableMultiHeadAttn(
            (qkv_net): Linear(in_features=960, out_features=1536, bias=False)
            (drop): Dropout(p=0.1, inplace=False)
            (dropatt): Dropout(p=0.0, inplace=False)
            (o_net): Linear(in_features=512, out_features=960, bias=False)
            (layer_norm): LayerNorm((960,), eps=1e-05, elementwise_affine=True)
            (r_net): Linear(in_features=960, out_features=512, bias=False)
          )
          (pos_ff): PositionwiseFF(
            (CoreNet): Sequential(
              (0): Linear(in_features=960, out_features=4032, bias=True)
              (1): ReLU(inplace=True)
              (2): Dropout(p=0.1, inplace=False)
              (3): Linear(in_features=4032, out_features=960, bias=True)
              (4): Dropout(p=0.1, inplace=False)
            )
            (layer_norm): LayerNorm((960,), eps=1e-05, elementwise_affine=True)
          )
        )
        (8): RelPartialLearnableDecoderLayer(
          (dec_attn): RelPartialLearnableMultiHeadAttn(
            (qkv_net): Linear(in_features=960, out_features=1536, bias=False)
            (drop): Dropout(p=0.1, inplace=False)
            (dropatt): Dropout(p=0.0, inplace=False)
            (o_net): Linear(in_features=512, out_features=960, bias=False)
            (layer_norm): LayerNorm((960,), eps=1e-05, elementwise_affine=True)
            (r_net): Linear(in_features=960, out_features=512, bias=False)
          )
          (pos_ff): PositionwiseFF(
            (CoreNet): Sequential(
              (0): Linear(in_features=960, out_features=4032, bias=True)
              (1): ReLU(inplace=True)
              (2): Dropout(p=0.1, inplace=False)
              (3): Linear(in_features=4032, out_features=960, bias=True)
              (4): Dropout(p=0.1, inplace=False)
            )
            (layer_norm): LayerNorm((960,), eps=1e-05, elementwise_affine=True)
          )
        )
        (9): RelPartialLearnableDecoderLayer(
          (dec_attn): RelPartialLearnableMultiHeadAttn(
            (qkv_net): Linear(in_features=960, out_features=1536, bias=False)
            (drop): Dropout(p=0.1, inplace=False)
            (dropatt): Dropout(p=0.0, inplace=False)
            (o_net): Linear(in_features=512, out_features=960, bias=False)
            (layer_norm): LayerNorm((960,), eps=1e-05, elementwise_affine=True)
            (r_net): Linear(in_features=960, out_features=512, bias=False)
          )
          (pos_ff): PositionwiseFF(
            (CoreNet): Sequential(
              (0): Linear(in_features=960, out_features=4032, bias=True)
              (1): ReLU(inplace=True)
              (2): Dropout(p=0.1, inplace=False)
              (3): Linear(in_features=4032, out_features=960, bias=True)
              (4): Dropout(p=0.1, inplace=False)
            )
            (layer_norm): LayerNorm((960,), eps=1e-05, elementwise_affine=True)
          )
        )
      )
      (pos_emb): PositionalEmbedding()
    )
    (crit): ProjectedAdaptiveLogSoftmax(
      (out_layers): ModuleList(
        (0): Linear(in_features=512, out_features=19997, bias=True)
        (1): Linear(in_features=128, out_features=20000, bias=True)
        (2): Linear(in_features=32, out_features=160000, bias=True)
        (3): Linear(in_features=8, out_features=67739, bias=True)
      )
      (out_projs): ParameterList(
          (0): Parameter containing: [torch.float32 of size 960x512]
          (1): Parameter containing: [torch.float32 of size 960x128]
          (2): Parameter containing: [torch.float32 of size 960x32]
          (3): Parameter containing: [torch.float32 of size 960x8]
      )
    )
  )
)>
_replicate_for_data_parallel: <bound method Module._replicate_for_data_parallel of HfTransfoXL(
  (model): TransfoXLLMHeadModel(
    (transformer): TransfoXLModel(
      (word_emb): AdaptiveEmbedding(
        (emb_layers): ModuleList(
          (0): Embedding(19997, 512)
          (1): Embedding(20000, 128)
          (2): Embedding(160000, 32)
          (3): Embedding(67739, 8)
        )
        (emb_projs): ParameterList(
            (0): Parameter containing: [torch.float32 of size 960x512]
            (1): Parameter containing: [torch.float32 of size 960x128]
            (2): Parameter containing: [torch.float32 of size 960x32]
            (3): Parameter containing: [torch.float32 of size 960x8]
        )
      )
      (drop): Dropout(p=0.1, inplace=False)
      (layers): ModuleList(
        (0): RelPartialLearnableDecoderLayer(
          (dec_attn): RelPartialLearnableMultiHeadAttn(
            (qkv_net): Linear(in_features=960, out_features=1536, bias=False)
            (drop): Dropout(p=0.1, inplace=False)
            (dropatt): Dropout(p=0.0, inplace=False)
            (o_net): Linear(in_features=512, out_features=960, bias=False)
            (layer_norm): LayerNorm((960,), eps=1e-05, elementwise_affine=True)
            (r_net): Linear(in_features=960, out_features=512, bias=False)
          )
          (pos_ff): PositionwiseFF(
            (CoreNet): Sequential(
              (0): Linear(in_features=960, out_features=4032, bias=True)
              (1): ReLU(inplace=True)
              (2): Dropout(p=0.1, inplace=False)
              (3): Linear(in_features=4032, out_features=960, bias=True)
              (4): Dropout(p=0.1, inplace=False)
            )
            (layer_norm): LayerNorm((960,), eps=1e-05, elementwise_affine=True)
          )
        )
        (1): RelPartialLearnableDecoderLayer(
          (dec_attn): RelPartialLearnableMultiHeadAttn(
            (qkv_net): Linear(in_features=960, out_features=1536, bias=False)
            (drop): Dropout(p=0.1, inplace=False)
            (dropatt): Dropout(p=0.0, inplace=False)
            (o_net): Linear(in_features=512, out_features=960, bias=False)
            (layer_norm): LayerNorm((960,), eps=1e-05, elementwise_affine=True)
            (r_net): Linear(in_features=960, out_features=512, bias=False)
          )
          (pos_ff): PositionwiseFF(
            (CoreNet): Sequential(
              (0): Linear(in_features=960, out_features=4032, bias=True)
              (1): ReLU(inplace=True)
              (2): Dropout(p=0.1, inplace=False)
              (3): Linear(in_features=4032, out_features=960, bias=True)
              (4): Dropout(p=0.1, inplace=False)
            )
            (layer_norm): LayerNorm((960,), eps=1e-05, elementwise_affine=True)
          )
        )
        (2): RelPartialLearnableDecoderLayer(
          (dec_attn): RelPartialLearnableMultiHeadAttn(
            (qkv_net): Linear(in_features=960, out_features=1536, bias=False)
            (drop): Dropout(p=0.1, inplace=False)
            (dropatt): Dropout(p=0.0, inplace=False)
            (o_net): Linear(in_features=512, out_features=960, bias=False)
            (layer_norm): LayerNorm((960,), eps=1e-05, elementwise_affine=True)
            (r_net): Linear(in_features=960, out_features=512, bias=False)
          )
          (pos_ff): PositionwiseFF(
            (CoreNet): Sequential(
              (0): Linear(in_features=960, out_features=4032, bias=True)
              (1): ReLU(inplace=True)
              (2): Dropout(p=0.1, inplace=False)
              (3): Linear(in_features=4032, out_features=960, bias=True)
              (4): Dropout(p=0.1, inplace=False)
            )
            (layer_norm): LayerNorm((960,), eps=1e-05, elementwise_affine=True)
          )
        )
        (3): RelPartialLearnableDecoderLayer(
          (dec_attn): RelPartialLearnableMultiHeadAttn(
            (qkv_net): Linear(in_features=960, out_features=1536, bias=False)
            (drop): Dropout(p=0.1, inplace=False)
            (dropatt): Dropout(p=0.0, inplace=False)
            (o_net): Linear(in_features=512, out_features=960, bias=False)
            (layer_norm): LayerNorm((960,), eps=1e-05, elementwise_affine=True)
            (r_net): Linear(in_features=960, out_features=512, bias=False)
          )
          (pos_ff): PositionwiseFF(
            (CoreNet): Sequential(
              (0): Linear(in_features=960, out_features=4032, bias=True)
              (1): ReLU(inplace=True)
              (2): Dropout(p=0.1, inplace=False)
              (3): Linear(in_features=4032, out_features=960, bias=True)
              (4): Dropout(p=0.1, inplace=False)
            )
            (layer_norm): LayerNorm((960,), eps=1e-05, elementwise_affine=True)
          )
        )
        (4): RelPartialLearnableDecoderLayer(
          (dec_attn): RelPartialLearnableMultiHeadAttn(
            (qkv_net): Linear(in_features=960, out_features=1536, bias=False)
            (drop): Dropout(p=0.1, inplace=False)
            (dropatt): Dropout(p=0.0, inplace=False)
            (o_net): Linear(in_features=512, out_features=960, bias=False)
            (layer_norm): LayerNorm((960,), eps=1e-05, elementwise_affine=True)
            (r_net): Linear(in_features=960, out_features=512, bias=False)
          )
          (pos_ff): PositionwiseFF(
            (CoreNet): Sequential(
              (0): Linear(in_features=960, out_features=4032, bias=True)
              (1): ReLU(inplace=True)
              (2): Dropout(p=0.1, inplace=False)
              (3): Linear(in_features=4032, out_features=960, bias=True)
              (4): Dropout(p=0.1, inplace=False)
            )
            (layer_norm): LayerNorm((960,), eps=1e-05, elementwise_affine=True)
          )
        )
        (5): RelPartialLearnableDecoderLayer(
          (dec_attn): RelPartialLearnableMultiHeadAttn(
            (qkv_net): Linear(in_features=960, out_features=1536, bias=False)
            (drop): Dropout(p=0.1, inplace=False)
            (dropatt): Dropout(p=0.0, inplace=False)
            (o_net): Linear(in_features=512, out_features=960, bias=False)
            (layer_norm): LayerNorm((960,), eps=1e-05, elementwise_affine=True)
            (r_net): Linear(in_features=960, out_features=512, bias=False)
          )
          (pos_ff): PositionwiseFF(
            (CoreNet): Sequential(
              (0): Linear(in_features=960, out_features=4032, bias=True)
              (1): ReLU(inplace=True)
              (2): Dropout(p=0.1, inplace=False)
              (3): Linear(in_features=4032, out_features=960, bias=True)
              (4): Dropout(p=0.1, inplace=False)
            )
            (layer_norm): LayerNorm((960,), eps=1e-05, elementwise_affine=True)
          )
        )
        (6): RelPartialLearnableDecoderLayer(
          (dec_attn): RelPartialLearnableMultiHeadAttn(
            (qkv_net): Linear(in_features=960, out_features=1536, bias=False)
            (drop): Dropout(p=0.1, inplace=False)
            (dropatt): Dropout(p=0.0, inplace=False)
            (o_net): Linear(in_features=512, out_features=960, bias=False)
            (layer_norm): LayerNorm((960,), eps=1e-05, elementwise_affine=True)
            (r_net): Linear(in_features=960, out_features=512, bias=False)
          )
          (pos_ff): PositionwiseFF(
            (CoreNet): Sequential(
              (0): Linear(in_features=960, out_features=4032, bias=True)
              (1): ReLU(inplace=True)
              (2): Dropout(p=0.1, inplace=False)
              (3): Linear(in_features=4032, out_features=960, bias=True)
              (4): Dropout(p=0.1, inplace=False)
            )
            (layer_norm): LayerNorm((960,), eps=1e-05, elementwise_affine=True)
          )
        )
        (7): RelPartialLearnableDecoderLayer(
          (dec_attn): RelPartialLearnableMultiHeadAttn(
            (qkv_net): Linear(in_features=960, out_features=1536, bias=False)
            (drop): Dropout(p=0.1, inplace=False)
            (dropatt): Dropout(p=0.0, inplace=False)
            (o_net): Linear(in_features=512, out_features=960, bias=False)
            (layer_norm): LayerNorm((960,), eps=1e-05, elementwise_affine=True)
            (r_net): Linear(in_features=960, out_features=512, bias=False)
          )
          (pos_ff): PositionwiseFF(
            (CoreNet): Sequential(
              (0): Linear(in_features=960, out_features=4032, bias=True)
              (1): ReLU(inplace=True)
              (2): Dropout(p=0.1, inplace=False)
              (3): Linear(in_features=4032, out_features=960, bias=True)
              (4): Dropout(p=0.1, inplace=False)
            )
            (layer_norm): LayerNorm((960,), eps=1e-05, elementwise_affine=True)
          )
        )
        (8): RelPartialLearnableDecoderLayer(
          (dec_attn): RelPartialLearnableMultiHeadAttn(
            (qkv_net): Linear(in_features=960, out_features=1536, bias=False)
            (drop): Dropout(p=0.1, inplace=False)
            (dropatt): Dropout(p=0.0, inplace=False)
            (o_net): Linear(in_features=512, out_features=960, bias=False)
            (layer_norm): LayerNorm((960,), eps=1e-05, elementwise_affine=True)
            (r_net): Linear(in_features=960, out_features=512, bias=False)
          )
          (pos_ff): PositionwiseFF(
            (CoreNet): Sequential(
              (0): Linear(in_features=960, out_features=4032, bias=True)
              (1): ReLU(inplace=True)
              (2): Dropout(p=0.1, inplace=False)
              (3): Linear(in_features=4032, out_features=960, bias=True)
              (4): Dropout(p=0.1, inplace=False)
            )
            (layer_norm): LayerNorm((960,), eps=1e-05, elementwise_affine=True)
          )
        )
        (9): RelPartialLearnableDecoderLayer(
          (dec_attn): RelPartialLearnableMultiHeadAttn(
            (qkv_net): Linear(in_features=960, out_features=1536, bias=False)
            (drop): Dropout(p=0.1, inplace=False)
            (dropatt): Dropout(p=0.0, inplace=False)
            (o_net): Linear(in_features=512, out_features=960, bias=False)
            (layer_norm): LayerNorm((960,), eps=1e-05, elementwise_affine=True)
            (r_net): Linear(in_features=960, out_features=512, bias=False)
          )
          (pos_ff): PositionwiseFF(
            (CoreNet): Sequential(
              (0): Linear(in_features=960, out_features=4032, bias=True)
              (1): ReLU(inplace=True)
              (2): Dropout(p=0.1, inplace=False)
              (3): Linear(in_features=4032, out_features=960, bias=True)
              (4): Dropout(p=0.1, inplace=False)
            )
            (layer_norm): LayerNorm((960,), eps=1e-05, elementwise_affine=True)
          )
        )
      )
      (pos_emb): PositionalEmbedding()
    )
    (crit): ProjectedAdaptiveLogSoftmax(
      (out_layers): ModuleList(
        (0): Linear(in_features=512, out_features=19997, bias=True)
        (1): Linear(in_features=128, out_features=20000, bias=True)
        (2): Linear(in_features=32, out_features=160000, bias=True)
        (3): Linear(in_features=8, out_features=67739, bias=True)
      )
      (out_projs): ParameterList(
          (0): Parameter containing: [torch.float32 of size 960x512]
          (1): Parameter containing: [torch.float32 of size 960x128]
          (2): Parameter containing: [torch.float32 of size 960x32]
          (3): Parameter containing: [torch.float32 of size 960x8]
      )
    )
  )
)>
_save_to_state_dict: <bound method Module._save_to_state_dict of HfTransfoXL(
  (model): TransfoXLLMHeadModel(
    (transformer): TransfoXLModel(
      (word_emb): AdaptiveEmbedding(
        (emb_layers): ModuleList(
          (0): Embedding(19997, 512)
          (1): Embedding(20000, 128)
          (2): Embedding(160000, 32)
          (3): Embedding(67739, 8)
        )
        (emb_projs): ParameterList(
            (0): Parameter containing: [torch.float32 of size 960x512]
            (1): Parameter containing: [torch.float32 of size 960x128]
            (2): Parameter containing: [torch.float32 of size 960x32]
            (3): Parameter containing: [torch.float32 of size 960x8]
        )
      )
      (drop): Dropout(p=0.1, inplace=False)
      (layers): ModuleList(
        (0): RelPartialLearnableDecoderLayer(
          (dec_attn): RelPartialLearnableMultiHeadAttn(
            (qkv_net): Linear(in_features=960, out_features=1536, bias=False)
            (drop): Dropout(p=0.1, inplace=False)
            (dropatt): Dropout(p=0.0, inplace=False)
            (o_net): Linear(in_features=512, out_features=960, bias=False)
            (layer_norm): LayerNorm((960,), eps=1e-05, elementwise_affine=True)
            (r_net): Linear(in_features=960, out_features=512, bias=False)
          )
          (pos_ff): PositionwiseFF(
            (CoreNet): Sequential(
              (0): Linear(in_features=960, out_features=4032, bias=True)
              (1): ReLU(inplace=True)
              (2): Dropout(p=0.1, inplace=False)
              (3): Linear(in_features=4032, out_features=960, bias=True)
              (4): Dropout(p=0.1, inplace=False)
            )
            (layer_norm): LayerNorm((960,), eps=1e-05, elementwise_affine=True)
          )
        )
        (1): RelPartialLearnableDecoderLayer(
          (dec_attn): RelPartialLearnableMultiHeadAttn(
            (qkv_net): Linear(in_features=960, out_features=1536, bias=False)
            (drop): Dropout(p=0.1, inplace=False)
            (dropatt): Dropout(p=0.0, inplace=False)
            (o_net): Linear(in_features=512, out_features=960, bias=False)
            (layer_norm): LayerNorm((960,), eps=1e-05, elementwise_affine=True)
            (r_net): Linear(in_features=960, out_features=512, bias=False)
          )
          (pos_ff): PositionwiseFF(
            (CoreNet): Sequential(
              (0): Linear(in_features=960, out_features=4032, bias=True)
              (1): ReLU(inplace=True)
              (2): Dropout(p=0.1, inplace=False)
              (3): Linear(in_features=4032, out_features=960, bias=True)
              (4): Dropout(p=0.1, inplace=False)
            )
            (layer_norm): LayerNorm((960,), eps=1e-05, elementwise_affine=True)
          )
        )
        (2): RelPartialLearnableDecoderLayer(
          (dec_attn): RelPartialLearnableMultiHeadAttn(
            (qkv_net): Linear(in_features=960, out_features=1536, bias=False)
            (drop): Dropout(p=0.1, inplace=False)
            (dropatt): Dropout(p=0.0, inplace=False)
            (o_net): Linear(in_features=512, out_features=960, bias=False)
            (layer_norm): LayerNorm((960,), eps=1e-05, elementwise_affine=True)
            (r_net): Linear(in_features=960, out_features=512, bias=False)
          )
          (pos_ff): PositionwiseFF(
            (CoreNet): Sequential(
              (0): Linear(in_features=960, out_features=4032, bias=True)
              (1): ReLU(inplace=True)
              (2): Dropout(p=0.1, inplace=False)
              (3): Linear(in_features=4032, out_features=960, bias=True)
              (4): Dropout(p=0.1, inplace=False)
            )
            (layer_norm): LayerNorm((960,), eps=1e-05, elementwise_affine=True)
          )
        )
        (3): RelPartialLearnableDecoderLayer(
          (dec_attn): RelPartialLearnableMultiHeadAttn(
            (qkv_net): Linear(in_features=960, out_features=1536, bias=False)
            (drop): Dropout(p=0.1, inplace=False)
            (dropatt): Dropout(p=0.0, inplace=False)
            (o_net): Linear(in_features=512, out_features=960, bias=False)
            (layer_norm): LayerNorm((960,), eps=1e-05, elementwise_affine=True)
            (r_net): Linear(in_features=960, out_features=512, bias=False)
          )
          (pos_ff): PositionwiseFF(
            (CoreNet): Sequential(
              (0): Linear(in_features=960, out_features=4032, bias=True)
              (1): ReLU(inplace=True)
              (2): Dropout(p=0.1, inplace=False)
              (3): Linear(in_features=4032, out_features=960, bias=True)
              (4): Dropout(p=0.1, inplace=False)
            )
            (layer_norm): LayerNorm((960,), eps=1e-05, elementwise_affine=True)
          )
        )
        (4): RelPartialLearnableDecoderLayer(
          (dec_attn): RelPartialLearnableMultiHeadAttn(
            (qkv_net): Linear(in_features=960, out_features=1536, bias=False)
            (drop): Dropout(p=0.1, inplace=False)
            (dropatt): Dropout(p=0.0, inplace=False)
            (o_net): Linear(in_features=512, out_features=960, bias=False)
            (layer_norm): LayerNorm((960,), eps=1e-05, elementwise_affine=True)
            (r_net): Linear(in_features=960, out_features=512, bias=False)
          )
          (pos_ff): PositionwiseFF(
            (CoreNet): Sequential(
              (0): Linear(in_features=960, out_features=4032, bias=True)
              (1): ReLU(inplace=True)
              (2): Dropout(p=0.1, inplace=False)
              (3): Linear(in_features=4032, out_features=960, bias=True)
              (4): Dropout(p=0.1, inplace=False)
            )
            (layer_norm): LayerNorm((960,), eps=1e-05, elementwise_affine=True)
          )
        )
        (5): RelPartialLearnableDecoderLayer(
          (dec_attn): RelPartialLearnableMultiHeadAttn(
            (qkv_net): Linear(in_features=960, out_features=1536, bias=False)
            (drop): Dropout(p=0.1, inplace=False)
            (dropatt): Dropout(p=0.0, inplace=False)
            (o_net): Linear(in_features=512, out_features=960, bias=False)
            (layer_norm): LayerNorm((960,), eps=1e-05, elementwise_affine=True)
            (r_net): Linear(in_features=960, out_features=512, bias=False)
          )
          (pos_ff): PositionwiseFF(
            (CoreNet): Sequential(
              (0): Linear(in_features=960, out_features=4032, bias=True)
              (1): ReLU(inplace=True)
              (2): Dropout(p=0.1, inplace=False)
              (3): Linear(in_features=4032, out_features=960, bias=True)
              (4): Dropout(p=0.1, inplace=False)
            )
            (layer_norm): LayerNorm((960,), eps=1e-05, elementwise_affine=True)
          )
        )
        (6): RelPartialLearnableDecoderLayer(
          (dec_attn): RelPartialLearnableMultiHeadAttn(
            (qkv_net): Linear(in_features=960, out_features=1536, bias=False)
            (drop): Dropout(p=0.1, inplace=False)
            (dropatt): Dropout(p=0.0, inplace=False)
            (o_net): Linear(in_features=512, out_features=960, bias=False)
            (layer_norm): LayerNorm((960,), eps=1e-05, elementwise_affine=True)
            (r_net): Linear(in_features=960, out_features=512, bias=False)
          )
          (pos_ff): PositionwiseFF(
            (CoreNet): Sequential(
              (0): Linear(in_features=960, out_features=4032, bias=True)
              (1): ReLU(inplace=True)
              (2): Dropout(p=0.1, inplace=False)
              (3): Linear(in_features=4032, out_features=960, bias=True)
              (4): Dropout(p=0.1, inplace=False)
            )
            (layer_norm): LayerNorm((960,), eps=1e-05, elementwise_affine=True)
          )
        )
        (7): RelPartialLearnableDecoderLayer(
          (dec_attn): RelPartialLearnableMultiHeadAttn(
            (qkv_net): Linear(in_features=960, out_features=1536, bias=False)
            (drop): Dropout(p=0.1, inplace=False)
            (dropatt): Dropout(p=0.0, inplace=False)
            (o_net): Linear(in_features=512, out_features=960, bias=False)
            (layer_norm): LayerNorm((960,), eps=1e-05, elementwise_affine=True)
            (r_net): Linear(in_features=960, out_features=512, bias=False)
          )
          (pos_ff): PositionwiseFF(
            (CoreNet): Sequential(
              (0): Linear(in_features=960, out_features=4032, bias=True)
              (1): ReLU(inplace=True)
              (2): Dropout(p=0.1, inplace=False)
              (3): Linear(in_features=4032, out_features=960, bias=True)
              (4): Dropout(p=0.1, inplace=False)
            )
            (layer_norm): LayerNorm((960,), eps=1e-05, elementwise_affine=True)
          )
        )
        (8): RelPartialLearnableDecoderLayer(
          (dec_attn): RelPartialLearnableMultiHeadAttn(
            (qkv_net): Linear(in_features=960, out_features=1536, bias=False)
            (drop): Dropout(p=0.1, inplace=False)
            (dropatt): Dropout(p=0.0, inplace=False)
            (o_net): Linear(in_features=512, out_features=960, bias=False)
            (layer_norm): LayerNorm((960,), eps=1e-05, elementwise_affine=True)
            (r_net): Linear(in_features=960, out_features=512, bias=False)
          )
          (pos_ff): PositionwiseFF(
            (CoreNet): Sequential(
              (0): Linear(in_features=960, out_features=4032, bias=True)
              (1): ReLU(inplace=True)
              (2): Dropout(p=0.1, inplace=False)
              (3): Linear(in_features=4032, out_features=960, bias=True)
              (4): Dropout(p=0.1, inplace=False)
            )
            (layer_norm): LayerNorm((960,), eps=1e-05, elementwise_affine=True)
          )
        )
        (9): RelPartialLearnableDecoderLayer(
          (dec_attn): RelPartialLearnableMultiHeadAttn(
            (qkv_net): Linear(in_features=960, out_features=1536, bias=False)
            (drop): Dropout(p=0.1, inplace=False)
            (dropatt): Dropout(p=0.0, inplace=False)
            (o_net): Linear(in_features=512, out_features=960, bias=False)
            (layer_norm): LayerNorm((960,), eps=1e-05, elementwise_affine=True)
            (r_net): Linear(in_features=960, out_features=512, bias=False)
          )
          (pos_ff): PositionwiseFF(
            (CoreNet): Sequential(
              (0): Linear(in_features=960, out_features=4032, bias=True)
              (1): ReLU(inplace=True)
              (2): Dropout(p=0.1, inplace=False)
              (3): Linear(in_features=4032, out_features=960, bias=True)
              (4): Dropout(p=0.1, inplace=False)
            )
            (layer_norm): LayerNorm((960,), eps=1e-05, elementwise_affine=True)
          )
        )
      )
      (pos_emb): PositionalEmbedding()
    )
    (crit): ProjectedAdaptiveLogSoftmax(
      (out_layers): ModuleList(
        (0): Linear(in_features=512, out_features=19997, bias=True)
        (1): Linear(in_features=128, out_features=20000, bias=True)
        (2): Linear(in_features=32, out_features=160000, bias=True)
        (3): Linear(in_features=8, out_features=67739, bias=True)
      )
      (out_projs): ParameterList(
          (0): Parameter containing: [torch.float32 of size 960x512]
          (1): Parameter containing: [torch.float32 of size 960x128]
          (2): Parameter containing: [torch.float32 of size 960x32]
          (3): Parameter containing: [torch.float32 of size 960x8]
      )
    )
  )
)>
_slow_forward: <bound method Module._slow_forward of HfTransfoXL(
  (model): TransfoXLLMHeadModel(
    (transformer): TransfoXLModel(
      (word_emb): AdaptiveEmbedding(
        (emb_layers): ModuleList(
          (0): Embedding(19997, 512)
          (1): Embedding(20000, 128)
          (2): Embedding(160000, 32)
          (3): Embedding(67739, 8)
        )
        (emb_projs): ParameterList(
            (0): Parameter containing: [torch.float32 of size 960x512]
            (1): Parameter containing: [torch.float32 of size 960x128]
            (2): Parameter containing: [torch.float32 of size 960x32]
            (3): Parameter containing: [torch.float32 of size 960x8]
        )
      )
      (drop): Dropout(p=0.1, inplace=False)
      (layers): ModuleList(
        (0): RelPartialLearnableDecoderLayer(
          (dec_attn): RelPartialLearnableMultiHeadAttn(
            (qkv_net): Linear(in_features=960, out_features=1536, bias=False)
            (drop): Dropout(p=0.1, inplace=False)
            (dropatt): Dropout(p=0.0, inplace=False)
            (o_net): Linear(in_features=512, out_features=960, bias=False)
            (layer_norm): LayerNorm((960,), eps=1e-05, elementwise_affine=True)
            (r_net): Linear(in_features=960, out_features=512, bias=False)
          )
          (pos_ff): PositionwiseFF(
            (CoreNet): Sequential(
              (0): Linear(in_features=960, out_features=4032, bias=True)
              (1): ReLU(inplace=True)
              (2): Dropout(p=0.1, inplace=False)
              (3): Linear(in_features=4032, out_features=960, bias=True)
              (4): Dropout(p=0.1, inplace=False)
            )
            (layer_norm): LayerNorm((960,), eps=1e-05, elementwise_affine=True)
          )
        )
        (1): RelPartialLearnableDecoderLayer(
          (dec_attn): RelPartialLearnableMultiHeadAttn(
            (qkv_net): Linear(in_features=960, out_features=1536, bias=False)
            (drop): Dropout(p=0.1, inplace=False)
            (dropatt): Dropout(p=0.0, inplace=False)
            (o_net): Linear(in_features=512, out_features=960, bias=False)
            (layer_norm): LayerNorm((960,), eps=1e-05, elementwise_affine=True)
            (r_net): Linear(in_features=960, out_features=512, bias=False)
          )
          (pos_ff): PositionwiseFF(
            (CoreNet): Sequential(
              (0): Linear(in_features=960, out_features=4032, bias=True)
              (1): ReLU(inplace=True)
              (2): Dropout(p=0.1, inplace=False)
              (3): Linear(in_features=4032, out_features=960, bias=True)
              (4): Dropout(p=0.1, inplace=False)
            )
            (layer_norm): LayerNorm((960,), eps=1e-05, elementwise_affine=True)
          )
        )
        (2): RelPartialLearnableDecoderLayer(
          (dec_attn): RelPartialLearnableMultiHeadAttn(
            (qkv_net): Linear(in_features=960, out_features=1536, bias=False)
            (drop): Dropout(p=0.1, inplace=False)
            (dropatt): Dropout(p=0.0, inplace=False)
            (o_net): Linear(in_features=512, out_features=960, bias=False)
            (layer_norm): LayerNorm((960,), eps=1e-05, elementwise_affine=True)
            (r_net): Linear(in_features=960, out_features=512, bias=False)
          )
          (pos_ff): PositionwiseFF(
            (CoreNet): Sequential(
              (0): Linear(in_features=960, out_features=4032, bias=True)
              (1): ReLU(inplace=True)
              (2): Dropout(p=0.1, inplace=False)
              (3): Linear(in_features=4032, out_features=960, bias=True)
              (4): Dropout(p=0.1, inplace=False)
            )
            (layer_norm): LayerNorm((960,), eps=1e-05, elementwise_affine=True)
          )
        )
        (3): RelPartialLearnableDecoderLayer(
          (dec_attn): RelPartialLearnableMultiHeadAttn(
            (qkv_net): Linear(in_features=960, out_features=1536, bias=False)
            (drop): Dropout(p=0.1, inplace=False)
            (dropatt): Dropout(p=0.0, inplace=False)
            (o_net): Linear(in_features=512, out_features=960, bias=False)
            (layer_norm): LayerNorm((960,), eps=1e-05, elementwise_affine=True)
            (r_net): Linear(in_features=960, out_features=512, bias=False)
          )
          (pos_ff): PositionwiseFF(
            (CoreNet): Sequential(
              (0): Linear(in_features=960, out_features=4032, bias=True)
              (1): ReLU(inplace=True)
              (2): Dropout(p=0.1, inplace=False)
              (3): Linear(in_features=4032, out_features=960, bias=True)
              (4): Dropout(p=0.1, inplace=False)
            )
            (layer_norm): LayerNorm((960,), eps=1e-05, elementwise_affine=True)
          )
        )
        (4): RelPartialLearnableDecoderLayer(
          (dec_attn): RelPartialLearnableMultiHeadAttn(
            (qkv_net): Linear(in_features=960, out_features=1536, bias=False)
            (drop): Dropout(p=0.1, inplace=False)
            (dropatt): Dropout(p=0.0, inplace=False)
            (o_net): Linear(in_features=512, out_features=960, bias=False)
            (layer_norm): LayerNorm((960,), eps=1e-05, elementwise_affine=True)
            (r_net): Linear(in_features=960, out_features=512, bias=False)
          )
          (pos_ff): PositionwiseFF(
            (CoreNet): Sequential(
              (0): Linear(in_features=960, out_features=4032, bias=True)
              (1): ReLU(inplace=True)
              (2): Dropout(p=0.1, inplace=False)
              (3): Linear(in_features=4032, out_features=960, bias=True)
              (4): Dropout(p=0.1, inplace=False)
            )
            (layer_norm): LayerNorm((960,), eps=1e-05, elementwise_affine=True)
          )
        )
        (5): RelPartialLearnableDecoderLayer(
          (dec_attn): RelPartialLearnableMultiHeadAttn(
            (qkv_net): Linear(in_features=960, out_features=1536, bias=False)
            (drop): Dropout(p=0.1, inplace=False)
            (dropatt): Dropout(p=0.0, inplace=False)
            (o_net): Linear(in_features=512, out_features=960, bias=False)
            (layer_norm): LayerNorm((960,), eps=1e-05, elementwise_affine=True)
            (r_net): Linear(in_features=960, out_features=512, bias=False)
          )
          (pos_ff): PositionwiseFF(
            (CoreNet): Sequential(
              (0): Linear(in_features=960, out_features=4032, bias=True)
              (1): ReLU(inplace=True)
              (2): Dropout(p=0.1, inplace=False)
              (3): Linear(in_features=4032, out_features=960, bias=True)
              (4): Dropout(p=0.1, inplace=False)
            )
            (layer_norm): LayerNorm((960,), eps=1e-05, elementwise_affine=True)
          )
        )
        (6): RelPartialLearnableDecoderLayer(
          (dec_attn): RelPartialLearnableMultiHeadAttn(
            (qkv_net): Linear(in_features=960, out_features=1536, bias=False)
            (drop): Dropout(p=0.1, inplace=False)
            (dropatt): Dropout(p=0.0, inplace=False)
            (o_net): Linear(in_features=512, out_features=960, bias=False)
            (layer_norm): LayerNorm((960,), eps=1e-05, elementwise_affine=True)
            (r_net): Linear(in_features=960, out_features=512, bias=False)
          )
          (pos_ff): PositionwiseFF(
            (CoreNet): Sequential(
              (0): Linear(in_features=960, out_features=4032, bias=True)
              (1): ReLU(inplace=True)
              (2): Dropout(p=0.1, inplace=False)
              (3): Linear(in_features=4032, out_features=960, bias=True)
              (4): Dropout(p=0.1, inplace=False)
            )
            (layer_norm): LayerNorm((960,), eps=1e-05, elementwise_affine=True)
          )
        )
        (7): RelPartialLearnableDecoderLayer(
          (dec_attn): RelPartialLearnableMultiHeadAttn(
            (qkv_net): Linear(in_features=960, out_features=1536, bias=False)
            (drop): Dropout(p=0.1, inplace=False)
            (dropatt): Dropout(p=0.0, inplace=False)
            (o_net): Linear(in_features=512, out_features=960, bias=False)
            (layer_norm): LayerNorm((960,), eps=1e-05, elementwise_affine=True)
            (r_net): Linear(in_features=960, out_features=512, bias=False)
          )
          (pos_ff): PositionwiseFF(
            (CoreNet): Sequential(
              (0): Linear(in_features=960, out_features=4032, bias=True)
              (1): ReLU(inplace=True)
              (2): Dropout(p=0.1, inplace=False)
              (3): Linear(in_features=4032, out_features=960, bias=True)
              (4): Dropout(p=0.1, inplace=False)
            )
            (layer_norm): LayerNorm((960,), eps=1e-05, elementwise_affine=True)
          )
        )
        (8): RelPartialLearnableDecoderLayer(
          (dec_attn): RelPartialLearnableMultiHeadAttn(
            (qkv_net): Linear(in_features=960, out_features=1536, bias=False)
            (drop): Dropout(p=0.1, inplace=False)
            (dropatt): Dropout(p=0.0, inplace=False)
            (o_net): Linear(in_features=512, out_features=960, bias=False)
            (layer_norm): LayerNorm((960,), eps=1e-05, elementwise_affine=True)
            (r_net): Linear(in_features=960, out_features=512, bias=False)
          )
          (pos_ff): PositionwiseFF(
            (CoreNet): Sequential(
              (0): Linear(in_features=960, out_features=4032, bias=True)
              (1): ReLU(inplace=True)
              (2): Dropout(p=0.1, inplace=False)
              (3): Linear(in_features=4032, out_features=960, bias=True)
              (4): Dropout(p=0.1, inplace=False)
            )
            (layer_norm): LayerNorm((960,), eps=1e-05, elementwise_affine=True)
          )
        )
        (9): RelPartialLearnableDecoderLayer(
          (dec_attn): RelPartialLearnableMultiHeadAttn(
            (qkv_net): Linear(in_features=960, out_features=1536, bias=False)
            (drop): Dropout(p=0.1, inplace=False)
            (dropatt): Dropout(p=0.0, inplace=False)
            (o_net): Linear(in_features=512, out_features=960, bias=False)
            (layer_norm): LayerNorm((960,), eps=1e-05, elementwise_affine=True)
            (r_net): Linear(in_features=960, out_features=512, bias=False)
          )
          (pos_ff): PositionwiseFF(
            (CoreNet): Sequential(
              (0): Linear(in_features=960, out_features=4032, bias=True)
              (1): ReLU(inplace=True)
              (2): Dropout(p=0.1, inplace=False)
              (3): Linear(in_features=4032, out_features=960, bias=True)
              (4): Dropout(p=0.1, inplace=False)
            )
            (layer_norm): LayerNorm((960,), eps=1e-05, elementwise_affine=True)
          )
        )
      )
      (pos_emb): PositionalEmbedding()
    )
    (crit): ProjectedAdaptiveLogSoftmax(
      (out_layers): ModuleList(
        (0): Linear(in_features=512, out_features=19997, bias=True)
        (1): Linear(in_features=128, out_features=20000, bias=True)
        (2): Linear(in_features=32, out_features=160000, bias=True)
        (3): Linear(in_features=8, out_features=67739, bias=True)
      )
      (out_projs): ParameterList(
          (0): Parameter containing: [torch.float32 of size 960x512]
          (1): Parameter containing: [torch.float32 of size 960x128]
          (2): Parameter containing: [torch.float32 of size 960x32]
          (3): Parameter containing: [torch.float32 of size 960x8]
      )
    )
  )
)>
_state_dict_hooks: OrderedDict([])
…
